ViT_test/model.pth (torch, 844578 bytes, 44 tensors)

cls_token f4 [1, 1, 16]
00000000: b502 0a3f b82f 8e3e 379a 043f 25ee 7e3f
00000010: a509 513f 3efd 243f 3c11 5b3f 3ee8 3d3f
00000020: 383a 633f 1679 513f 58a7 2b3f b453 3b3f
00000030: 2839 0c3e 28d3 673f 7f92 423f eb2c 573e
0.5391038 0.27770782 0.51797813 0.9958213 0.8165534 0.64448917 0.8557317 0.741825
0.8876071 0.8182539 0.6705222 0.73174596 0.13693678 0.90556574 0.76004785 0.21013229

pos_emb f4 [1, 50, 16]
00000000: a682 243f 9029 293f ee81 663f e056 8c3e
00000010: 3329 ee3d 8529 633f 6333 213f 86bd 4e3f
00000020: 8150 e83e f48c 0b3f a1da 313e 2388 453f
00000030: 4a57 c73e 9289 163e 3f9b 953e 4de5 b2bb
00000040: 12d9 2c3f b27b 0e3f ed6b cc3e 82b5 9ebd
00000050: 6f9b 8e3e c916 6e3f 9d26 203f 0720 103f
00000060: be4a bb3d a288 f63e 5dc0 643e 9eb4 a53e
00000070: 87bc 623e 95c6 523d 016c 4f3f a7b7 a83e
00000080: 11b3 613f d635 023f d400 283f c970 093f
00000090: 9fcf 3f3e 0c70 4d3f 7433 ec3e a51e 5f3e
000000a0: 8d77 803a 4ef7 0d3f 5f4f 313f ef01 f43e
000000b0: 8607 3e3e ad66 993e c811 1d3f 9451 1e3e
000000c0: 45b9 2e3f d160 cf3e 4edd 1c3f 74d0 483f
000000d0: 7cf1 9f3f b6f4 983e 8e31 3d3f e25d 853f
000000e0: 9910 363f 4959 f23e 9f0e 5d3f c640 fb3e
000000f0: d9ac b83e afa4 7f3f 6c59 5d3f c73b 163f
00000100: 1f85 263f da08 343e bd6a af3e ad6e 373f
00000110: 88e3 7c3f 14c7 aa3d dfc0 0a3f ba60 653f
00000120: a562 0b3e 82bb 473e 324b 523f 89b6 a03e
00000130: a0d4 fb3e 8814 863f 2344 273f a422 ba3e
00000140: b28e 443e a034 843d c1c3 d03e 8dc7 2b3f
00000150: 5839 913f 4c96 3c3e 39e6 bb3e d0b4 843e
00000160: a4bc da3e e04a 323f e353 4b3f a52c 213e
00000170: b694 ee3d 55ea 4b3f 5e53 ce3e 838f 563e
00000180: c965 6b3f 00e5 583f c21d 4b3f eca5 ed3d
00000190: c510 573f c08a 2a3f b84b 1e3f 023b a93e
000001a0: 9b45 e53e 2a3f 563f 3121 6a3f 8f87 503f
000001b0: 7012 6d3f 67af 88bc 0c36 a23f df39 593f
000001c0: 8964 343f 11c3 693f a658 8f3b c368 c93e
000001d0: 0bf3 033f 2bad 053f 3ae5 fc3e 764a 873e
000001e0: 4bd7 243f 6690 d63e d32e 8f3e 518e 033f
000001f0: 6ef3 803f 9be1 b13d b34f 3e3f 4549 673f
00000200: 9841 333f e061 873c f749 de3e 9aa3 9c3e
00000210: 326c e53e 8358 363f aab2 283f b50e 953e
00000220: 81da 983e 7071 143f 885f 8a3f 1f0e 373f
00000230: 0386 b83e 7f36 303f 6942 ce3e 38b1 583e
00000240: 56a7 b83e ed30 b83e b6de 443e 6f02 3cbc
00000250: d81a 02bd b58d 323f 8b27 3e3e 1372 9d3e
00000260: 1e29 cb3e 8cda 0e3f 8ab4 c33e a58a 3d3f
00000270: 5ac2 883e c60a 323f 92d0 423f 0559 943e
00000280: 2f71 473e 26bf 6fbe 2b72 fb3e e8ab 183e
00000290: 31ef b53d 1a55 973e c0de 9a3f 7c7a bf3f
000002a0: baeb 513f 9a14 a73e e6f1 b43e 9afc d43e
000002b0: 9f1b 953d 7f2e 813e ab6a 093f bbda 0c3f
000002c0: e662 7a3e 582b 353f 2a78 d03e e072 d13d
000002d0: 7ef2 b83d 9c29 a2bc 6783 3b3f 896b 803f
000002e0: 00a1 173f e130 b13e 4830 9c3d 2219 8b3f
000002f0: 555e 9b3e f56d 173f 0865 2fbe 09f6 0f3e
00000300: 7d7d ca3e 67df 6a3f 3490 373f 412e eb3e
00000310: c5d1 56bd 6642 e1bd 1481 1f3f b3c9 243f
00000320: be32 b33e 77f3 bbbd 5916 1cbe 166d 9c3f
00000330: ba6d d13e d8c1 3b3f 55af 063e 8ab4 4c3e
00000340: 8e7f 583f 4dfd f43e aa49 473f 7d74 cb3e
00000350: 419c 613e 9446 e43e f5b5 833f 87f3 4fbe
00000360: 5a55 923e 3b7d d83e a777 683f 14a5 9b3f
00000370: e141 253f 634c 42bb 0630 203f 125c 8f3e
00000380: 61e2 583f 6d62 323f 281b 603f 2375 183e
00000390: f240 503f 52ac 6f3f 31f7 393e a5e4 083f
000003a0: 0e0b 7a3d 8b5e d43e 394f ea3e 7c76 433f
000003b0: 19eb 1b3f 4ac0 123f a94b 1c3f 42c2 2c3f
000003c0: b91b 573f 432e dd3e 0a58 d63e 8267 8d3e
000003d0: 0e91 0e3f 9957 4c3f 0878 383e dd25 053d
000003e0: 5758 bd3e 1a81 173d 4271 fd3e 4e3e ae3e
000003f0: 4a29 023f 6ed0 d03e 6b34 b33e 7b88 273f
0.64261854 0.66079044 0.90042007 0.2741003 0.11628952 0.8873523 0.62969035 0.8075794
0.4537392 0.5451195 0.17368557 0.77160853 0.38933784 0.14700916 0.29220006 -0.0054594637
0.67518723 0.55657494 0.3992609 -0.077494636 0.2785296 0.9300352 0.6255892 0.5629887
0.09145115 0.48151118 0.22339006 0.32364362 0.2214223 0.051458914 0.81024176 0.32952616
0.8816386 0.508634 0.65626264 0.5368772 0.18731545 0.80249095 0.46133006 0.21789034
0.0009801254 0.5545548 0.69261736 0.47657725 0.18557557 0.29961148 0.6135526 0.15460807
0.6825145 0.40503553 0.61275184 0.78443074 1.249557 0.298742 0.7390374 1.0419276
0.71119076 0.47333744 0.86350435 0.49072856 0.36069372 0.9986066 0.8646457 0.58684963
0.65046877 0.17581502 0.34261122 0.7165325 0.98784685 0.083387524 0.5420055 0.8960072
0.13611849 0.19505122 0.8214599 0.31389263 0.49185658 1.0475016 0.65338343 0.36354554
0.19195059 0.0645535 0.40774348 0.67101365 1.1345625 0.18416709 0.36699083 0.259192
0.42722046 0.696455 0.79424876 0.15739687 0.11649458 0.7965444 0.4029798 0.20953183
0.91952187 0.84724426 0.7934228 0.11603913 0.84009963 0.66617966 0.6183429 0.33052832
0.44779667 0.8369013 0.91456896 0.81456846 0.9260626 -0.0166852 1.2672744 0.8485393
0.70465904 0.9131327 0.0043745814 0.3933774 0.5154273 0.5221736 0.49393636 0.26423997
0.6439101 0.41907042 0.27965412 0.5138903 1.0074289 0.08685609 0.7434036 0.90346175
0.70021963 0.016526163 0.43415806 0.30593568 0.4480911 0.7122881 0.6589762 0.29112783
0.29854205 0.5798559 1.0810404 0.7150592 0.36039743 0.68833154 0.40285042 0.21161354
0.36065167 0.35974827 0.19225582 -0.01147519 -0.03176388 0.6974748 0.18569772 0.30751094
0.39679807 0.55802226 0.38223678 0.7403968 0.26710778 0.6954769 0.76099503 0.28974167
0.1947677 -0.23412761 0.4911054 0.14909327 0.08883513 0.29557115 1.2099228 1.4959254
0.82000315 0.32632905 0.35340804 0.4159897 0.07280659 0.25230786 0.5367839 0.55021256
0.2445179 0.7076926 0.40716678 0.10226989 0.09030627 -0.019795232 0.7324738 1.0032817
0.5923004 0.34607604 0.076263964 1.0867045 0.30345407 0.59152156 -0.17128384 0.14058699
0.39548865 0.91747135 0.7170441 0.45933726 -0.052446146 -0.109989926 0.6230633 0.6437027
0.3499965 -0.091772966 -0.152429 1.222079 0.40904027 0.7334266 0.13152821 0.19990745
0.84569633 0.47849503 0.7784678 0.3973731 0.22032262 0.44585097 1.0289904 -0.20307742
0.28580743 0.42283043 0.90807575 1.2159753 0.6455365 -0.002964758 0.6257328 0.27999932
0.84720427 0.69681436 0.8754144 0.14888434 0.813491 0.93622315 0.18160702 0.53473884
0.0610457 0.4147838 0.45763567 0.7635267 0.60905606 0.5732466 0.6105295 0.67483914
0.84026676 0.43199357 0.41864043 0.27618033 0.55690086 0.79821163 0.18014538 0.032506812
0.3698146 0.036988355 0.4950047 0.3403191 0.5084425 0.4078402 0.3500093 0.6544263

conv.weight f4 [16, 1, 4, 4]
00000000: 32ff 013d 5d02 7abe ed7b 94bc 2962 01be
00000010: 87fc 5f3e 3865 3cbb 44dd afbc 583d 623c
00000020: 4d19 f13c db02 80bd 94ef 1fbe 8ef5 66be
00000030: dc1b 08be 2a4d 413e 0a3e 7c3e c882 da3e
00000040: efd6 ac3d f520 a83c 8050 47be e2fd 753e
00000050: 3fa1 633e 5dd0 54bd bcf1 043e 3c5f 8d3e
00000060: cdca 223d 0aed 223d d267 d03d 85a4 3e3e
00000070: 7703 62bd c0f2 f83d c39f 283e a66d a43e
00000080: f251 1cbe 677f 1abe e327 5ebe a69c 3bbd
00000090: e137 af3e 55f9 81b9 4202 6a3e 677e 833c
000000a0: 1318 cb3e cc5b a4bb a5ba 0d3e d7a8 273e
000000b0: 5d51 ee3e 0238 603d bd44 6dbd 89b4 98be
000000c0: 38ad a23c d9bc 023e 16ab debd b977 e5bc
000000d0: 3350 49be 55af d4bd 2527 49be 9d7a 453e
000000e0: c7ef 72be 239b 69be d948 edbd d919 46bd
000000f0: 9728 d5bd 56a6 ea3d ee05 5ebb 18eb 5e3e
00000100: 1afc 9e3e 2c46 2e3e 45a4 983b 0d3e 893e
00000110: 25c4 af3d 5a6a 45be d324 52bd 1033 38bd
00000120: 5325 7a3d 76da a0be 2cd6 7fbe fa3b a43d
00000130: 2411 363e 02cd f83c fdbd 67be 54b8 653e
00000140: aa60 ac3e 808b cb3d b690 0bbc 3d6e 5cbd
00000150: 170e 713e c911 693e c6e3 dd3d 8703 2c3e
00000160: cff5 6e3e d7f7 823d bbc9 b43c 29c7 0ebd
00000170: 383b 04bf b11f 9abe cc2d a4be 658c 40be
00000180: a3d3 823e 84ab 72be 828b 38be 191c 19bf
00000190: 7c80 793e 8e39 9ebd a021 47be 18ba b5be
000001a0: 5896 e63e d9e6 96be 6562 94bc 6010 39be
000001b0: bf9e 933e d433 4b3d 79d4 b33d f0a1 7a3e
000001c0: ea47 36bd abc7 7ebe 31a2 d7bb 5aee 113e
000001d0: 43a0 7e3e 08fa ab3b bbc0 393b c0c4 db3e
000001e0: 9c22 063e d9d6 d73b 0a54 8ebe ad12 043e
000001f0: 5e88 573e 0093 9dbe d4b3 a5be 4fca 12bc
00000200: 8f3b 013f b4ff 953e 8f1c 5a3e 2acd a4be
00000210: f0ab e13b e935 3abe a2d1 3abe 3c92 013e
00000220: eab4 c73d 83ef c33d a888 b1bd f2c0 753e
00000230: 5366 0cbe 911d 4ebe f9d9 893d e063 bc3e
00000240: 16c0 9ebc 452d abbe 4870 8abe c340 9fbe
00000250: 294b 843e 1106 1e3e d6fa 203e bbd6 73bb
00000260: de11 b9bd b728 e5bd 423c 1ebc 9570 493e
00000270: e6e9 d53d 0d74 44be ff03 f8bd aeec 9d3e
00000280: f678 763e d101 2c3e ade4 153c 362f a23d
00000290: 84c5 e33d ede5 7dbe c5c1 21bd 734c 30be
000002a0: c6a4 6dbe 45c8 f43d 1c23 883c 60b6 8a3e
000002b0: 2436 9fbe 72fd 47be 37fa a4be 1cb6 f7bd
000002c0: 71f5 7b3d f599 0d3d e541 24bd 9891 f2bd
000002d0: 4ac0 04be 171d 873e 68f2 2a3e bcdf 33bd
000002e0: e896 2bbd 271d a5bd 6d8c 7d3c b63e 5cbe
000002f0: 954d 4cbe 0115 56be 398b b4bd d4ed 15be
00000300: 845e 2fbd ef5b 843d 74dc 1e3e 82ec f8be
00000310: 74c7 e83d a41d dd3d 5929 793d 94e5 013d
00000320: 70b1 3d3e 209b 2c3e ca9e b8bd 1739 c7bd
00000330: 9769 263e 51d5 cf3b 0dbc 38be a003 823c
00000340: dc6a 4e3e c6de 4f3d e97e e93d b414 cf3d
00000350: 48fb 9e3c aaba 4abe 99b0 20be 821b e6be
00000360: b2e4 8cbd 5b0c 253d df4f 66be 7c4c cebe
00000370: a15f 1a3e 4058 3dbe 3744 2e3e 9fa2 02bd
00000380: 3798 a23e aba6 473d c66f af3e 25fc c93d
00000390: 87ec 6c3e 09d2 673e b44f 1b3e bfbd 50be
000003a0: 0b1c 56bc a625 2dbe f6a1 1c3e 7d2e 82be
000003b0: a213 a43e dc1b 0c3e f32b b2bd af46 26be
000003c0: 5fe1 68bd a62b 323e 460d 953e c067 563e
000003d0: 4dca d0bb a13d 613e 38a7 373d 6055 7bbe
000003e0: 8d1d cb3c fbde 323d db66 da3d 7b59 febd
000003f0: 1f75 863e 29c1 3a3e 7f5b 9c3e 1897 243e
0.031737514 -0.24414964 -0.018125499 -0.12635101 0.21873675 -0.0028746855 -0.021467812 0.013808571
0.02943101 -0.06250545 -0.15618736 -0.22554609 -0.13291878 0.18877092 0.24633041 0.42677903
0.08439433 0.020523528 -0.19464302 0.2402263 0.22229479 -0.051956523 0.1298284 0.2761172
0.039744187 0.03977684 0.10176052 0.18617447 -0.055179086 0.12155676 0.16467194 0.32114905
-0.15265635 -0.15087663 -0.21694903 -0.04580369 0.3422232 -0.00024790564 0.22852424 0.016051484
0.39666805 -0.005015826 0.1384073 0.16373001 0.4654645 0.054740913 -0.057926882 -0.29825237
0.019857988 0.12767352 -0.10872476 -0.02801119 -0.196595 -0.103850044 -0.19643839 0.19285055
-0.2372428 -0.22813086 -0.1158616 -0.048364494 -0.104081325 0.11457507 -0.0033878046 0.21769369
0.31051713 0.17018956 0.0046582543 0.26805153 0.085823335 -0.19278851 -0.05130465 -0.044970572
0.06107075 -0.31416672 -0.24984044 0.08019252 0.17779976 0.030371193 -0.22631069 0.22433597
0.336675 0.09938717 -0.0085183885 -0.05381607 0.23540531 0.22760691 0.1083446 0.1679822
0.23335956 0.06394928 0.022068849 -0.034857903 -0.5165286 -0.30102304 -0.3206619 -0.18803556
0.2555209 -0.2369824 -0.18021968 -0.598085 0.24365419 -0.077258214 -0.1944642 -0.3549354
0.45036578 -0.29472998 -0.018113324 -0.18072653 0.2883205 0.049609974 0.0878076 0.24475837
-0.044502176 -0.24880855 -0.006580614 0.1425108 0.24865822 0.005248312 0.0028343636 0.42923546
0.1309914 0.006586891 -0.27798492 0.12897749 0.21048114 -0.30776215 -0.3236376 -0.008959367
0.50481504 0.29296649 0.21299957 -0.32187778 0.0068869516 -0.18184628 -0.18244031 0.1265344
0.097513035 0.095671676 -0.08668643 0.23999384 -0.13710909 -0.20128466 0.06731028 0.3679495
-0.019378703 -0.33432975 -0.2703879 -0.31104097 0.25838593 0.15432002 0.15720686 -0.0037206847
-0.09036611 -0.11189406 -0.009657921 0.19671853 0.10445003 -0.19184895 -0.12110137 0.30844635
0.2406958 0.16797568 0.009148759 0.07919161 0.111216575 -0.24794741 -0.039491434 -0.17216663
-0.23207387 0.11952261 0.016618304 0.27092266 -0.31095994 -0.19530275 -0.3222215 -0.120952815
0.061513368 0.034570653 -0.040101904 -0.11844176 -0.12963977 0.2638938 0.16694033 -0.04391454
-0.041891962 -0.08062201 0.015475375 -0.21508297 -0.1995147 -0.2090645 -0.08815617 -0.14641505
-0.042814746 0.064628474 0.15513784 -0.4861794 0.11366168 0.10796669 0.060830448 0.031713083
0.18524718 0.1685605 -0.090146616 -0.09727686 0.16251217 0.006342568 -0.18040486 0.01587087
0.20157951 0.050749563 0.11401159 0.10111371 0.01940693 -0.19797769 -0.15692367 -0.44942862
-0.06879558 0.040294986 -0.22491406 -0.40292728 0.15075542 -0.18490696 0.1701821 -0.03189337
0.31756756 0.04874293 0.34264964 0.09862546 0.23137103 0.22638716 0.15167123 -0.20384882
-0.013068209 -0.16908893 0.15296158 -0.25426093 0.3204623 0.13682503 -0.08699789 -0.16237901
-0.056855556 0.17399463 0.2911169 0.20938015 -0.0063717724 0.21996166 0.044837207 -0.24544287
0.024794364 0.043669682 0.106641494 -0.12419411 0.2626123 0.18237747 0.30538556 0.16073263

conv.bias f4 [16]
00000000: 4aae 933d b6e2 493e d43a ca3d b435 313e
00000010: 7392 82bd 0655 04be b158 e1bd ef32 51be
00000020: 8152 5bbe b297 163e acda 06bc f25f ca3d
00000030: 716c 8b3e 15aa c03c 7a2a 51be 0e46 36be
0.072109774 0.1971539 0.09874502 0.17305642 -0.06375589 -0.12923059 -0.11003245 -0.20429586
-0.21418191 0.14706305 -0.008230846 0.09881581 0.27231172 0.023518601 -0.2042636 -0.17800161

patch_emb.weight f4 [16, 16]
00000000: e77e babe a196 173e cbf3 8e3e 0f31 03be
00000010: 78c2 513d b9a7 693e 2b8c 0bbd e91f c93e
00000020: 1076 563e e8a0 df3d 9b10 83bd 7b60 33be
00000030: caa3 66bd f898 4abe 9e66 fa3d 19af b3bb
00000040: 4b26 033d e2e6 463e fd17 9abe 7ea2 513e
00000050: 3eb4 e73d c996 8f3d 1c8d 03be afdb b33d
00000060: d251 e4bc d332 453e d46b fabc 9cfb 1ebd
00000070: b092 adbe 5b4d fabd 1375 33be b362 17be
00000080: 9d43 953d de03 29be 7794 97be f92d dc3d
00000090: 5534 6bbe a08e c93d 9f9f 4fbd 91b5 73be
000000a0: 39f1 a13e f411 773d c681 a83e 8931 d03d
000000b0: 8bd0 12be 6d22 c2bd 571d 1abe 4a24 fd3d
000000c0: 7700 42bd 81f3 90bd 0497 d83d af04 343e
000000d0: 25b3 9a3d 2466 5f3e ab79 7e3e 5468 afbc
000000e0: fcbe 5b3e 992f 27be 042b 633e 9762 bfbd
000000f0: 04d7 173c a4f3 153e 0d49 903e 519a 503c
00000100: f73a 4dbe 801b c23b fd69 8b3c 36be 32be
00000110: accc e0bd 4fc0 e93e 010d 1ebe 1b08 463d
00000120: e6e6 f43c 04a2 e03d be68 983d a8e4 813e
00000130: 61a1 ab3d 4b5f 803d 3645 333d a971 22bd
00000140: aec6 863e 5715 15bd 8d9b 793c 6321 2b3e
00000150: 635a b2be 2e64 01be f913 853e 1c38 043e
00000160: 7471 6dbd 27ce a43e 85cd 4f3d 6df1 843d
00000170: 3ef9 22bd 9152 a1be f3b6 babe 27e5 b5bd
00000180: 1231 b7be 8f1c 0dbd a524 a5be de2f a63e
00000190: e35d cd3d 52cf 723e 3710 56be 9168 ab3e
000001a0: 830a 5fbe 2ba6 c5bc 053c 933e 04d5 aebc
000001b0: 1b81 b0be 0196 4e3e 3be7 34be cabd 89be
000001c0: 7f8f 3a3e 5da1 903e fd63 02bd 30b8 6b3d
000001d0: 5471 a13e 7b5f 6e3d 8e8c 42bc 7db8 1b3e
000001e0: 3b6c 003f e03e 98bc 07b3 4d3d eeac f2bd
000001f0: 76d6 18bd f819 afbd e596 49bd f9ed 253d
00000200: 5c41 253d 5af0 e03d e576 27be 375d 8dbd
00000210: 06e3 89be f316 ecbd 89cd 1abe d465 b8be
00000220: 3a4c f6bb 90e1 e9bd 8bd4 e7bd 2948 96bd
00000230: 167b e63d 8452 253d 48b2 c7bb ce46 ad3e
00000240: 68c0 593e 0f2e ac3d 62db 373e 8730 473e
00000250: d82a 003f fd02 87be a5d5 a03e e3b8 f13d
00000260: d3a2 08be dfc8 ba3c 106a adbd 85aa 383d
00000270: 32e7 283e 7eac 7f3e 8263 c0bd c7d3 3e3e
00000280: 526e 05be 3186 64be 11e9 09be 620a c7bd
00000290: 2266 abbd 6cc8 053d 1a21 e03d e4b6 663e
000002a0: e05e 663d 7be5 30be 13f1 d6bd 2318 ff3c
000002b0: 92b3 77be ef62 193e 04b0 8c3e dacd 203e
000002c0: e4ee 3dbe c982 78be 0b1b f2bd bf6a 1ebe
000002d0: 3fd4 993d 0ffc c83e e5b5 5abe 35a1 ee3d
000002e0: 3e7b fc3c 7e56 88be 5920 9e3e 8568 8f3e
000002f0: ce60 61bb d82b 92bd d096 79bd 299f a1be
00000300: 0b1e 8abd b9b1 4b3e c63d 8e3c 7f28 fbbd
00000310: 3d67 9c3e f67f 8d3e 9f3a 313e b270 a93e
00000320: 2848 543e fc4b 133e 9bb1 8cbc 897d f1bd
00000330: 694b 6cbe 3ba4 e53d 6281 acbc 53c9 0d3e
00000340: 1474 46bd fcbd c93d 9c8f fa3d 4e3f 18be
00000350: dfaf acbe f71c 013d 43d1 b13d c530 ac3b
00000360: 9e5e c6be 96b2 633e 21db 1f3d 32ee 933d
00000370: e908 6e3c 63ec ddbd b953 cebd fe76 9a3c
00000380: 4964 80bd 490b 513e 9889 2dbc dc9a f9bb
00000390: 0c99 823c db5a dcbd 203b d6be 0590 843e
000003a0: 69d4 f0bc b040 0cbf 9812 86bd 3441 0b3e
000003b0: 18f2 84be a2f2 4dbe 5ded 103d b206 5a3e
000003c0: 3458 76bc 197d a1be 0111 06be 4aa9 263e
000003d0: 289d 103d ac0c bbbe 9161 613e 7ad4 15bc
000003e0: 5017 5fbe 9c4a 32be 1220 19bd 126c 7a3d
000003f0: bb50 a7bc 8906 ac3e 75f7 61be 3572 a8be
-0.36424944 0.14803554 0.27920374 -0.12811683 0.05121085 0.22817887 -0.03406922 0.39282158
0.20943475 0.10919362 -0.063996516 -0.17517273 -0.056308545 -0.19784915 0.12226604 -0.0054835198
0.03201894 0.19424012 -0.30096427 0.20472142 0.11313675 0.07011182 -0.12846798 0.08782136
-0.027871046 0.19257669 -0.030568995 -0.038814172 -0.33900976 -0.12221786 -0.17525129 -0.14783745
0.07288287 -0.16505381 -0.29605457 0.10750956 -0.22969182 0.09841657 -0.050689336 -0.23799731
0.3162935 0.060319856 0.3291151 0.10165698 -0.14337365 -0.094792224 -0.15050255 0.12360437
-0.047363725 -0.07077695 0.10575679 0.17579912 0.075537 0.21816307 0.248511 -0.021412052
0.21459574 -0.16326751 0.22184378 -0.093449764 0.009267572 0.14643723 0.28180733 0.012732104
-0.20042025 0.0059236884 0.017018313 -0.17455372 -0.10976538 0.45654532 -0.15434648 0.048347574
0.029895257 0.10968402 0.07441853 0.25369763 0.0838039 0.06268176 0.043767177 -0.039659176
0.26323456 -0.036397304 0.01523484 0.16711955 -0.34834585 -0.12635872 0.259918 0.12912029
-0.057969525 0.32188532 0.050733108 0.06491361 -0.039788477 -0.31508306 -0.36467704 -0.08881598
-0.35779625 -0.034451064 -0.3225452 0.32458395 0.10027673 0.23711899 -0.20904623 0.33478215
-0.21781354 -0.024127087 0.2875673 -0.021341808 -0.344735 0.2017441 -0.17666332 -0.2690261
0.18218802 0.2824811 -0.031833638 0.0575487 0.31531775 0.058196526 -0.011874331 0.15207095
0.50165147 -0.018584669 0.050219562 -0.1184939 -0.0373139 -0.08549875 -0.04921617 0.04051015
0.040345535 0.109833434 -0.16353948 -0.06902545 -0.26931018 -0.11527815 -0.15117468 -0.3601519
-0.007516411 -0.11419976 -0.11319836 -0.07337982 0.112539455 0.040361896 -0.006094251 0.33843082
0.21264803 0.084072225 0.17954782 0.19452105 0.50065374 -0.26369467 0.31412998 0.118028425
-0.13343363 0.02280086 -0.084674954 0.045084495 0.16494444 0.24968144 -0.093939796 0.18635474
-0.13030365 -0.22316815 -0.13467814 -0.09718777 -0.0836909 0.03266184 0.109438136 0.22530705
0.056242824 -0.1727504 -0.104952 0.031139439 -0.24189594 0.14979146 0.2747804 0.15703526
-0.18548161 -0.2426864 -0.11821564 -0.15470408 0.07511186 0.39254805 -0.2135845 0.116518416
0.030820485 -0.26628488 0.30884054 0.2800943 -0.0034389975 -0.07137269 -0.06093484 -0.31566742
-0.067440115 0.19892015 0.01736344 -0.122635834 0.30547515 0.2763669 0.17307518 0.33093792
0.2073065 0.14384454 -0.017174533 -0.11791522 -0.23075642 0.11212965 -0.021057788 0.1384633
-0.048450544 0.0985069 0.122344226 -0.14867899 -0.3372793 0.031521764 0.08682492 0.005254837
-0.38744062 0.22236094 0.039027337 0.072231665 0.0145284915 -0.10836103 -0.100745626 0.018855568
-0.06269128 0.20414461 -0.010591887 -0.0076173376 0.015942119 -0.10759517 -0.41841984 0.25891128
-0.02939816 -0.54786205 -0.06546515 0.13599092 -0.25965953 -0.20112088 0.035382617 0.21291617
-0.015035678 -0.31540754 -0.13092424 0.16275516 0.035306126 -0.36533105 0.22009875 -0.009144897
-0.21786237 -0.17411274 -0.0373841 0.06113822 -0.020424237 0.33598736 -0.22067054 -0.32899633

patch_emb.bias f4 [16]
00000000: f28d 20bb 5d79 93be ae40 febc 3f32 a53d
00000010: bbed 5fbd a16c 84bc b78e 593e cc64 243d
00000020: 5893 a33d 3073 8a3d a626 65be 1f3f 643e
00000030: 3395 803d 7b81 e6bd 1594 62be 5836 25be
-0.0024498668 -0.2880353 -0.031036701 0.08066224 -0.054670077 -0.01616508 0.21245848 0.04013519
0.07987088 0.067602515 -0.22378024 0.22289704 0.062784575 -0.11255165 -0.22126801 -0.16134012

transformer_enc.layers.0.self_attn.in_proj_weight f4 [48, 16]
00000000: 2548 aebd e6dd 4dbd 80a3 86bd edd4 c9be
00000010: 2be6 1ebf 273e 04bf d2d3 92be 54f8 4fbd
00000020: 207a 1cbe a004 f4be 5710 78be 2df6 0bbe
00000030: 82a1 04bf 0e79 ad3c a6c4 8dbe b9f0 a6be
00000040: 53cf 63bd 9fc1 b93e 2f94 773d 3477 1e3e
00000050: fd47 ba3e fe2e 8f3e cbe8 0abe 3ad1 16be
00000060: 7eec 26be dcb5 313e 48b1 883d a724 8f3e
00000070: bf74 c63d dd11 a03e 4aae a5be 0f8d c03e
00000080: 4624 79be 1834 9ebd d753 523e ed3d 7fbe
00000090: 560d 2e3e b58c 883e 70bf b53b e65a 84be
000000a0: 111e dc3e ddb5 353f 1648 c1be 73d9 df3e
000000b0: d0e7 bf3d 8e20 3c3e 84d9 c6be 4eb0 c63e
000000c0: 7af6 eb3e bea4 2e3e 78c1 b83e ae38 983d
000000d0: 05a4 a23e 2e2c 813e 8bbc 78bc 1715 053d
000000e0: 3766 d33e 0c38 803e 14c5 abbd b22f 6f3e
000000f0: d3a3 323c fdc4 b13d 9f6b 4e3e d7e9 6bbe
00000100: 5ec2 98be 8afd 4ebe 48be 003e d0a4 e83d
00000110: 388d 92bd 6076 1ebe 6cdd 3f3e 45f7 b6be
00000120: bbab c0be 9829 38be 7589 ecbd fd29 fe3c
00000130: 4ec9 18be f9f1 9d3d 50c5 eebd 0bc8 14bc
00000140: cb3e 22be e8a0 4b3e 8d6d 663d 224a b03d
00000150: bff9 423e cae7 853e 601d 34be d22f a5be
00000160: 0dcb 7e3e 1941 8bbd 5f74 a13d db2d 233e
00000170: d7c8 66be bc48 323e 7c6e 633e cb4a b33d
00000180: 6a6f 723e 835d 883d 2474 d63e e750 a23e
00000190: cc72 4c3e ebd0 ae3e 70f2 ed3d 0f8f 003e
000001a0: b882 be3c 51a8 e03e cc56 4abc 29c9 d83e
000001b0: 872d 923e 4d3d 8c3e ac64 1bbe a48e 313e
000001c0: 5000 4e3e a6cd dc3c fd0a 493e d4e3 aa3e
000001d0: ebe0 a13e 6d95 ff3e a4a5 293e 6cd4 11bc
000001e0: 425a 873e a94f c43e 7e0b a6bd 41dc bf3e
000001f0: ee33 723c 2e74 17be 73c2 5cbe 5b08 883e
00000200: 8f8e 8d3e 6fd7 ffbd c3a5 543e bbc4 6e3d
00000210: 0cde 493e 25f2 3e3c a72c ae3e 15cc 313e
00000220: 24a2 163d fcb1 833e ec37 963e dfbb 223e
00000230: 5529 8d3e 1251 48be e2e1 09bb 0bd5 ea3e
00000240: c6bc c2be e538 87be f59b 1dbf 663d f9bd
00000250: e1ce 713e b89a 51bf e02e 0e3d c67b ccbd
00000260: 0340 36be 0848 18be c5c0 7abf 96b9 cdbe
00000270: ecc5 9d3e 8366 66be fa21 a93d 776d 52be
00000280: 5e8a 4c3e fc92 8b3e 3318 7d3e 3a6e b2be
00000290: 2928 79be 1e92 533e 7082 3a3c ab5a 513e
000002a0: 3e9a 4d3e 1d01 97be d8cc 56be f1b2 f83c
000002b0: 7ed9 5cbd 955b afbb dfcc 03be a037 0b3c
000002c0: 3dce d1be 2f80 1c3c 2a07 09be b334 dd3d
000002d0: 85db 8fbe 385a d0be 7b1f 75be bf67 fa3e
000002e0: 5e18 91be 10d4 9dbe 7467 9f3c bea9 0a3d
000002f0: 1536 493e 4701 9a3e 2a0d aebe 440d 31be
00000300: 4b11 173d 3ca9 85bd bca2 78be 102c 3c3e
00000310: 669e 70be b415 a4be b27e 563d cdc5 893e
00000320: abeb 993d 4fbd b3bc dc88 8c3d 7283 8abe
00000330: 8d90 a53c 7ff4 903e 8fa4 99bd dc98 3d3e
00000340: 9cf6 a93c 51af be3d 2707 0abe fca1 97be
00000350: 9801 4c3e 6754 533d 34c1 223e 3307 bdbe
00000360: f819 2cbd 356f 92be f06d 53bd 336f ef3d
00000370: c670 773e ec34 d9be 4434 a3be b012 1ebe
00000380: 2f84 f8bd 7a7c 66bd 67f8 c63e 67b4 023f
00000390: dd11 9c3e 2fb9 e63d 983e 0f3f 55dc b23e
000003a0: 42a9 8a3d a86e 323e 0265 f83e f6b7 2f3e
000003b0: 11b0 b53e b091 d23e abe1 a93d 1b5f 0b3e
000003c0: df23 ed3c 16cb 81be 4a5f 463d 0691 423d
000003d0: 1e61 463e 93c4 f63d 3f28 b03e 03d0 88be
000003e0: f75c bb3e 3ca8 b03d 5930 9abe 0439 083e
000003f0: d3c8 3d3d f810 1e3d 4585 d33d c829 9abd
-0.08509854 -0.050260447 -0.06574154 -0.39420262 -0.6206996 -0.51657337 -0.2867723 -0.050773934
-0.15280962 -0.4765978 -0.24224983 -0.13668127 -0.5180894 0.021175887 -0.27689093 -0.32605532
-0.05561764 0.36280534 0.060444053 0.1547516 0.36383048 0.2796554 -0.13565366 -0.14728251
-0.16301152 0.1735453 0.06674439 0.2795765 0.09690236 0.3126363 -0.32359535 0.3760762
-0.24330243 -0.0772478 0.20539795 -0.24925967 0.16997275 0.2666985 0.005546503 -0.258506
0.4299169 0.70980626 -0.3775031 0.43720588 0.093703866 0.18371794 -0.38837826 0.38806385
0.46086484 0.17055032 0.36085105 0.07432686 0.31765762 0.2522902 -0.015181671 0.032490816
0.4128892 0.2504276 -0.08387199 0.23358038 0.010903317 0.08680151 0.20158242 -0.23038422
-0.2983579 -0.20213905 0.12572587 0.113595605 -0.071558416 -0.15474844 0.1873681 -0.35735527
-0.3763102 -0.17984617 -0.11549655 0.031025881 -0.14920542 0.07712168 -0.11658728 -0.009080897
-0.15844266 0.198856 0.05625682 0.0860789 0.19040583 0.26153404 -0.1758933 -0.32263047
0.24882145 -0.06799526 0.07883524 0.15935461 -0.22537552 0.17410558 0.22210115 0.087545
0.23675314 0.06658461 0.41885483 0.3170235 0.19965667 0.34143767 0.11618507 0.12554573
0.023255691 0.43878415 -0.012349796 0.42340973 0.2855036 0.2739052 -0.15175122 0.1733957
0.20117307 0.02695353 0.19633098 0.33376944 0.3161691 0.4991869 0.16567093 -0.008900743
0.2643605 0.38342026 -0.08107661 0.37472728 0.014782889 -0.14790413 -0.21558551 0.26568875
0.27647826 -0.124922626 0.20766358 0.058293086 0.1971361 0.011654411 0.34018442 0.17363007
0.036775723 0.2572173 0.2933954 0.1589198 0.27570596 -0.19562176 -0.0021039178 0.45865664
-0.38034648 -0.26410595 -0.61566097 -0.12169914 0.23614074 -0.8187671 0.034712672 -0.099845454
-0.17797856 -0.14871228 -0.9795039 -0.40180653 0.30815065 -0.22500043 0.08258434 -0.2054957
0.19974658 0.27260578 0.24716263 -0.3484972 -0.24331726 0.20661208 0.011383638 0.20444743
0.2007837 -0.29493037 -0.20976579 0.030358763 -0.053918354 -0.0053514936 -0.12871121 0.008497149
-0.4097766 0.009552046 -0.13381639 0.10801067 -0.28097168 -0.4069383 -0.2393779 0.48907277
-0.28338903 -0.30825853 0.01945851 0.033853285 0.19649537 0.300791 -0.33994418 -0.17290217
0.036881726 -0.065264195 -0.24280828 0.18376184 -0.23497924 -0.32047808 0.05236692 0.26908723
0.07515653 -0.021940855 0.06862041 -0.2705341 0.020210529 0.28311536 -0.0750209 0.18515342
0.020747475 0.09310783 -0.13479291 -0.29615772 0.19922483 0.051594164 0.15894014 -0.36919555
-0.042016953 -0.2860047 -0.051618516 0.116911314 0.24164113 -0.4242319 -0.31875813 -0.15436816
-0.12134587 -0.056271054 0.3886139 0.5105652 0.3048238 0.1126579 0.55954885 0.34933725
0.067705646 0.17425025 0.48514563 0.1716002 0.3548589 0.41126776 0.08294996 0.13610499
0.028947769 -0.25350255 0.04843072 0.047501586 0.19372985 0.12049212 0.34405705 -0.267212
0.36594364 0.08625838 -0.3011501 0.13303 0.0463341 0.0385904 0.103281535 -0.075275004

transformer_enc.layers.0.self_attn.in_proj_bias f4 [48]
00000000: 6b59 cbbe 8d11 723d d95c 2c3e 4183 e03d
00000010: a11e adbd 2c57 a1bd dc12 813e 70fe 603e
00000020: c640 fd3c 7375 763d 46c7 99bc db3d 813d
00000030: ec37 963e e042 78bd 610b 313e 821d 8e3c
00000040: 6e78 093c 4b35 33bd d748 27bd 6b13 0d3c
00000050: 5e1c ffbb 95e5 443c dfe6 c5b4 3cf8 18bd
00000060: 3a2f 92bc 782a 3639 5819 78bc c26e f73c
00000070: c9eb 853c d086 2a3d 3c17 06bd b4a5 bcbc
00000080: 33a5 a3bc 7516 a03c 489a 173d b1b2 31bd
00000090: 550e 12bd c4f6 61bd c0c4 843c 1b2b 203d
000000a0: e4e9 5b3d d9a3 6abc 9f52 9e3d 4ecd 113c
000000b0: ec81 05bd 293a 913c 9d1c 763d f24c 663d
-0.39716658 0.05909877 0.16832294 0.10962535 -0.084531076 -0.07877955 0.252097 0.2197206
0.030914675 0.060170602 -0.018771779 0.06310626 0.2933954 -0.060610652 0.17289497 0.017348055
0.008390529 -0.043751996 -0.04084095 0.008610587 -0.007785364 0.012017627 -3.686209e-07 -0.03734611
-0.017844785 0.00017372693 -0.015142761 0.03020418 0.016347783 0.041632473 -0.032737 -0.023028232
-0.019976234 0.019541958 0.03701237 -0.043383304 -0.0356582 -0.055166975 0.016207099 0.03910361
0.053689852 -0.014321291 0.077306025 0.008899046 -0.032594606 0.017727928 0.06008588 0.056225725

transformer_enc.layers.0.self_attn.out_proj.weight f4 [16, 16]
00000000: fadc f1bd 7517 58bd bd99 213e 74be 3bbe
00000010: c782 293d 6703 2c3e 8e92 873e beb3 96bd
00000020: cf46 863d e14c b8bc 1c1e c4bb d3e4 063d
00000030: b400 ed3d 3739 f8bd 19a5 9abd a253 abbd
00000040: ce2d 843d d4f7 be3c 0560 9d3d aa05 a63d
00000050: 0783 943c 54a0 6cbd c66d 96bd 720b 4f3d
00000060: 3ac8 f8bd 563e 47bd a318 49bd 15f2 1e3d
00000070: 70a9 823e 090a 87be ac14 5a3d 6b38 603c
00000080: 2b70 2b3d fae4 4b3e fe7d 2f3d 117e 69be
00000090: da90 913d 7be2 76be 8d78 ecbd f526 793c
000000a0: 8ad8 55be 86f8 5d3d 8284 213e 7210 0e3e
000000b0: 0e1c 12be 4592 9b3e f79b 8cbe a5cd e2bd
000000c0: 0c31 373d 3ce1 973e 993c 11be 6a8c 1bbe
000000d0: 9b6b 333c a3dc 21be 7a02 843d 3a49 62bb
000000e0: ec7b c2bc 2eb1 a93e 8888 e1bd 8cbb 90bc
000000f0: db8e 313e 8f87 273e 847d 9cbd 29fe 313e
00000100: 1424 afbd 6b12 e0bc 8600 9c3d ca16 b2bc
00000110: 024d eb3d 9162 433e d95e 97bd 1576 e93d
00000120: ae53 c3bd deb2 f0bd 7bcf ba3d bb78 02be
00000130: 0d35 3abe 5f0c ca3d e66a c13d 6488 8dbd
00000140: 7b91 43be 4f80 71be a121 7c3d 4f38 a23d
00000150: 4d26 d1bd b5f6 7d3e 6271 47be 48ae 03be
00000160: aed3 023d d226 543e 3260 2d3b 127b 003e
00000170: cf7e 653e a6bf c03d a41d f3bd 4bd9 c33b
00000180: 1dfe 033e 974b cebc 3839 4e3d 953d ab3d
00000190: 9708 1c3e d559 4fbd e914 703d a88e 5f3c
000001a0: 0392 e4bd 9686 3b3e ae54 183d 2cc3 6e3e
000001b0: 6b0f 8b3e fc11 9fbe 0403 413e 5f6f 58be
000001c0: 2231 1dbd 3ba8 b5bd 1a6d 2cbe afdf b4bd
000001d0: b8e1 fa3d a489 2e3d e16a a23d 0186 a93d
000001e0: aa47 25bc 47bf a1bd 674f 9b3d 0fd0 61be
000001f0: 652a 0d3d fd9c 6abd d48f 4cbe 3cc3 2cbe
00000200: c65b 553d 93bf 763e 3daf 473e 8105 0c3d
00000210: 3984 4e3e 4d8d 9b3e f0b2 0fbd 8c4b 3d3e
00000220: 621e 823d 1800 c9bc d6c7 cabb b4e7 b53b
00000230: 9644 d23d 8553 e1bd acee 13bd 4c04 0b3e
00000240: be7a 28bb fc1c dbbd cf68 1abd 240d a3be
00000250: 857b d9bd 2741 9ebd ef32 3abe 56eb 283c
00000260: 23c1 c7bd a725 283e 94ed 933d 950a 503d
00000270: a26e b9bd ef40 ccbd f3f5 893e 6e35 f9bb
00000280: c32f 003e dbc9 af3d b231 2d3e 0cd5 893d
00000290: 16e8 e1bd 8e75 c73d 0798 5bbd 33f7 ca3d
000002a0: 20c0 b13c 24b2 32bd 0af3 6a3d 087b f23c
000002b0: e523 ba3d 8e1c 24be 4bf4 a43d f981 d0bd
000002c0: 1737 57be 74e0 b5be 114a 20bd 0984 3b3e
000002d0: 21b2 44bc 014b 133e a72c dabb 3791 283e
000002e0: 97d7 0f3e 74bb 503d 4eb7 7abd 5678 193e
000002f0: 13f3 603d 6895 213d 37e6 433d 1613 763d
00000300: 0ce2 05be b929 8ebd 3083 053e 4612 a73d
00000310: d8a6 10be 98cc 37be b082 a63d a440 afbd
00000320: fc41 a53d 63e0 59be 1e0f 67bc 156e 8ebd
00000330: f0c9 95be 9b04 48bd e7cb 933d 7d1a 6bbe
00000340: 6fc3 5bbd 153b 80be ddd1 803d 0458 2b3e
00000350: 9aad 403e dbbd a6bd b60c 30bd 3b2f 58be
00000360: aa13 e43d 782d 81bd a400 8abd 9bdc 883e
00000370: 4c92 13be 4b36 023e 636c 40be 2ab5 5a3d
00000380: 7c54 48be f1cd 9ebe 1435 583d bdad 203c
00000390: 2cea 21be 483b a2be d85a 9a3c 6a85 d43d
000003a0: be57 a6bc ce79 f2bc 114e 7f3c fbc9 53be
000003b0: 2758 e93b cdcc 433e 23a0 03be 5a11 e9bc
000003c0: db0c 97bd f314 0f3d 0510 4bbe d1a7 7c3c
000003d0: 522b a3bd c808 69bc ecd8 3f3e 6e77 8d3d
000003e0: bdc6 f1bc 3728 66be 8a0f bc3c cb79 43bd
000003f0: 1fe4 09bd ea3e 233d ebc4 183e bb6e 15be
-0.11809726 -0.052756745 0.15781303 -0.18334371 0.041384485 0.16798173 0.26479 -0.07358502
0.065564744 -0.022497596 -0.0059850346 0.032933068 0.115724 -0.12120288 -0.07551021 -0.08365561
0.06454049 0.023311533 0.0768433 0.08106549 0.018128885 -0.05777009 -0.07345156 0.050548024
-0.12147565 -0.048643433 -0.04909576 0.038805086 0.25519896 -0.26374844 0.05324237 0.013685326
0.04185502 0.19911566 0.042844765 -0.22801997 0.07107706 -0.24109833 -0.11546431 0.015207042
-0.20883384 0.05419209 0.15773204 0.13873461 -0.14268515 0.30385032 -0.27462742 -0.1107438
0.04472451 0.29664028 -0.14183272 -0.15190282 0.010950948 -0.15806822 0.06445785 -0.003452851
-0.023740731 0.3314299 -0.110123694 -0.017667554 0.17339651 0.16360305 -0.07641128 0.1738211
-0.08551803 -0.027352532 0.07617287 -0.021739382 0.114892974 0.19080569 -0.07391138 0.113994755
-0.09537445 -0.11752866 0.09121605 -0.12741368 -0.181843 0.09865641 0.094442174 -0.0691078
-0.19098465 -0.23584102 0.06155551 0.07920896 -0.102123834 0.24801143 -0.19476846 -0.12859452
0.031940155 0.20717934 0.0026455042 0.12546948 0.22411655 0.09411554 -0.11870888 0.005976831
0.12889905 -0.025182528 0.050347537 0.08361355 0.15237652 -0.05062278 0.05861369 0.013644852
-0.11160662 0.18313059 0.03719013 0.2331664 0.271602 -0.31068408 0.18848807 -0.21136235
-0.038376935 -0.08869978 -0.16838494 -0.08831727 0.12250084 0.042611733 0.07930542 0.08277512
-0.010087887 -0.078978114 0.07583504 -0.22052024 0.03446426 -0.057278622 -0.19976741 -0.16871351
0.052089475 0.24096517 0.19500442 0.034184936 0.20167626 0.3038124 -0.035082757 0.1848585
0.06353451 -0.024536178 -0.006188373 0.005551303 0.10266988 -0.11002258 -0.036116287 0.13575858
-0.0025707926 -0.10698888 -0.03769761 -0.31845963 -0.106192626 -0.077272706 -0.18183492 0.010310015
-0.09753635 0.16420613 0.07223049 0.05079134 -0.09054305 -0.099733226 0.26945457 -0.0076052463
0.1251822 0.08583423 0.16913489 0.067300886 -0.11030595 0.09739219 -0.05361178 0.09910431
0.021698058 -0.04362692 0.057360686 0.029599681 0.090888776 -0.16026518 0.08054408 -0.1018104
-0.21017109 -0.35522807 -0.039133135 0.18312086 -0.01200536 0.1438408 -0.006658155 0.16461645
0.14047085 0.05096002 -0.06120997 0.14987311 0.054919314 0.039449126 0.04782697 0.060076796
-0.13074511 -0.06941552 0.13038325 0.08157782 -0.14126146 -0.1794914 0.081303954 -0.08557251
0.08069226 -0.21277003 -0.014102725 -0.0695459 -0.2925563 -0.048832517 0.07216626 -0.22959323
-0.053653177 -0.25045076 0.06290028 0.16732794 0.18816224 -0.08141681 -0.042980872 -0.21111767
0.11136563 -0.063075006 -0.067384034 0.2673081 -0.14411277 0.12716024 -0.18791346 0.053395428
-0.19563478 -0.31016496 0.052784994 0.009807047 -0.15811986 -0.31685853 0.018842146 0.10377009
-0.02030551 -0.029599097 0.015582577 -0.20682518 0.0071211043 0.19121094 -0.12854056 -0.028450657
-0.07375499 0.034932088 -0.1983033 0.01542087 -0.07967247 -0.014223285 0.18735093 0.06907545
-0.029513711 -0.22476278 0.022956628 -0.047723573 -0.03366482 0.03985492 0.14918868 -0.14593022

transformer_enc.layers.0.self_attn.out_proj.bias f4 [16]
00000000: 109f 073c 64f2 37bc e603 23bc 1444 dabc
00000010: d1db 303d f9b0 153c 3bbe df3b cbea d6bb
00000020: 9dd8 0a3d 17aa 153d 2aff 17bd 442f a33b
00000030: 1145 073d 7e25 b23c 45b4 29bc ce1f 64bc
0.00827767 -0.011227224 -0.00994966 -0.02664379 0.043178383 0.009136432 0.006828097 -0.006558751
0.033897985 0.036539163 -0.037108578 0.0049799997 0.03302485 0.021746393 -0.010357921 -0.013923598

transformer_enc.layers.0.linear1.weight f4 [2048, 16]
00000000: 1e9f 1abe df85 913e 6131 9b3e 8978 84be
00000010: db4c 7e3e f87a 01be 4dc6 3d3e b49c c9bc
00000020: cd85 85be 0978 6ebe 4c52 973e dbbd 1a3e
00000030: 78fa 7ebd 97e1 20be 27b5 abbe 33f6 5abe
00000040: f425 2b3e c802 0dbe 47e1 cb3e 661d 993d
00000050: 6ffc 78bd 4f39 343e dca7 0dbe d997 3dbe
00000060: a270 a5be 037a cc3d 4fbf 1abe ac49 7fbe
00000070: 610b c3bd 4ff7 3d3e 3b22 5d3d da90 963e
00000080: 4f71 bd3d b539 cbbd 41cb 1cbc 8c67 97be
00000090: 2662 b63d 31be 9cbc 3a59 00be 7208 cabc
000000a0: cd58 963d f19a e3bc d7f8 d63e d6fc b03d
000000b0: 562a 24be 4492 eabe e265 923e 9494 7f3e
000000c0: f6ca 1cbe 6f0e c8bd bf46 2ebd 46ce 063e
000000d0: 7290 8e3d 77e2 dc3c 5a85 eebd b5f3 4c3c
000000e0: 7fb2 a43d 434f d73d 0452 9bbd 9b1c 34be
000000f0: 5481 18bc f540 773d 34c3 8a3e 4501 553e
00000100: 21a4 753e 2b25 2abe 279e 013e ae8a 0fbe
00000110: 4277 87be 7f3b 3f3e e3cd c83d 5bc9 17bd
00000120: c052 373e 3cc0 1fbd e356 d7bd 6403 a3be
00000130: a22a 073e 8c96 23bd 2ee4 8fbc 117e 3a3e
00000140: 40d2 e43d 203e 973e 2ebc 8abd 9253 47be
00000150: 5c6b 80bd d318 a9bc 5a17 023d 6b66 83be
00000160: 6de9 44be 2b18 1cbd a9e5 abbc b244 1f3e
00000170: d299 95bd 7ac4 183e eaac 0e3e 6ec0 71bd
00000180: c88c aa3c 5d35 f23e bbe0 053d 2dc4 26be
00000190: b83d 42bc 3729 bf3c fca5 8d3e a5ca e6bd
000001a0: 8c1c fe38 bc81 afbe 090f c33e 594f 4dbe
000001b0: afae a13d 4b38 9fbc 15e0 4cbd ed68 963b
000001c0: 8eb1 b93d 9f6b 25be 6ebe 2f3d b049 c7be
000001d0: 9e75 bfbd 78d9 a63e 4643 523e a2d8 04bf
000001e0: f367 51be 8fbb 6bbd 52cd da3c 8201 97bd
000001f0: 7be8 7d3b 1daf abbe 7498 8d3d 35a6 683e
00000200: 1c67 54be ca4d 9bbd 9c35 91be b3c5 53be
00000210: e611 a0be ac94 393e 2c8e a33e 50c2 d7be
00000220: 1742 b33c 0840 5c3d 6394 bc3e 3cb2 5abe
00000230: 796e c13e 2195 dbbe 48a9 4a3e 3180 693e
00000240: 5c56 243e 9352 d33d c7ee c83c 6d67 63be
00000250: 97f9 d0be b0a9 77bd a03a 45be a860 80be
00000260: 04e9 32be 6aa9 00be a357 babd c3fe 323d
00000270: 6274 7f3c 48b3 163d 3553 4a3e 8783 b0bd
00000280: 4f84 983d 2070 0fbe 7fd4 6dbd f02b 0b3e
00000290: 24a1 38be f682 193d 172b 2cbd c3c9 97be
000002a0: 6e0e 7d3d 249e a4bc afd2 6ebd 6fb7 cdbd
000002b0: 552f abbb 7bdc 20be 0d90 82bd dc92 d93d
000002c0: 82a8 303d 63f2 65be c78b 47be 59d2 eebd
000002d0: ed7b a23d 49d0 8c3e 5e2c aebc 4e5c a63d
000002e0: 06ee 3e3e 996c d83c 4d03 a93e 6dd3 82be
000002f0: 54ae 5b3d 06ca 763e 55ac 6e3d 2b52 b43e
00000300: 1a1a 0abb eaec d4bc bb1d 033d 1ec3 5ebd
00000310: b8c8 b73d 0819 cd3d 50d9 1d3e df58 35be
00000320: eb8f 563e 3c75 c7bd 5e81 a53e 4ce2 92be
00000330: bc01 953d d818 c63e 0c6a 80bd 9b6f e5bd
00000340: 984b 1ebe 3e0e b43d 55fb b8bc d94f bdbe
00000350: 4580 e0bc a68d 60be eb20 853d 3d99 c73b
00000360: 170a 013e b7e7 32be 3fbf 9e3e 5d7c 81bc
00000370: e580 fe3d 9dd2 e93d 2c70 36be dd14 073e
00000380: 1127 aebc 9e2d 94be f195 46be c278 b9be
00000390: cba4 7d3e be83 143e c5d7 cd3e a7d1 e0be
000003a0: d848 90be 1d4e a3be f33c 3e3d 6ff1 de3d
000003b0: 0ee2 ee3d 07a7 0cbd a8c2 c73d 3ab2 8a3e
000003c0: 44fa febd a15e 2ebd a2fb 0e3e 2a42 94bd
000003d0: 9598 d7ba aafe e2bd d392 67bd 96db 74be
000003e0: e706 313e 8ce6 84be 5071 bd3d 168a c5bb
000003f0: 7865 15be d7d7 3f3e cffe 463e c6f4 7d3e
-0.15099761 0.28422448 0.3031111 -0.2587321 0.24834006 -0.12644565 0.18532677 -0.024610855
-0.26078644 -0.23287977 0.29554975 0.15111487 -0.062250584 -0.15711056 -0.33536646 -0.2138298
0.16713697 -0.13770592 0.3982031 0.074763104 -0.060787614 0.17599986 -0.13833565 -0.18514957
-0.32312495 0.099842094 -0.15112041 -0.24930447 -0.09523655 0.18551372 0.053987723 0.29407388
0.092501275 -0.09923116 -0.009569944 -0.29571187 0.08905439 -0.01913366 -0.12534037 -0.02466223
0.07341156 -0.027783843 0.41986725 0.08641975 -0.16031775 -0.45814717 0.28593355 0.24959022
-0.15311798 -0.09768378 -0.042547937 0.13164625 0.069611445 0.026963456 -0.116465285 0.012509276
0.08041858 0.10513165 -0.075840026 -0.17589037 -0.009308178 0.060364682 0.27102053 0.20801266
0.23988391 -0.16615741 0.12657987 -0.14017746 -0.26458174 0.1867504 0.09804895 -0.037057262
0.1790266 -0.03900169 -0.10514619 -0.31838524 0.13199857 -0.039938495 -0.01756486 0.18212153
0.111729145 0.29539585 -0.06774174 -0.19465473 -0.06270477 -0.02064172 0.03176055 -0.25664076
-0.1922967 -0.038108986 -0.020983534 0.15553549 -0.073047295 0.149187 0.13933149 -0.059021406
0.020819083 0.47306338 0.032685023 -0.16285773 -0.011855535 0.023335082 0.276657 -0.1126912
0.00012116981 -0.34278667 0.38097408 -0.200498 0.078946464 -0.019436022 -0.05001839 0.004590145
0.09067069 -0.16154335 0.042906217 -0.38923407 -0.093486056 0.3258779 0.20533475 -0.51893055
-0.2044981 -0.057551917 0.026709232 -0.073733345 0.0038743305 -0.33532038 0.06913844 0.22719653
-0.20742458 -0.075831965 -0.28361213 -0.20680885 -0.31263655 0.1812312 0.31944406 -0.42140436
0.0218821 0.053772002 0.3683196 -0.21357054 0.37779596 -0.42887214 0.19791138 0.22802807
0.16048568 0.10318484 0.02452792 -0.22207423 -0.40815422 -0.06046456 -0.19260645 -0.25073743
-0.17471701 -0.12564626 -0.09098747 0.04369999 0.015591713 0.03679207 0.19758303 -0.08618837
0.07447111 -0.14007616 -0.05806398 0.1359098 -0.1803022 0.03747841 -0.04203328 -0.2964612
0.06178134 -0.020094939 -0.058306392 -0.10044753 -0.0052241483 -0.15709107 -0.06375132 0.10623714
0.04312945 -0.22455744 -0.19486915 -0.116612144 0.07933793 0.2750266 -0.02126139 0.081230745
0.18645486 0.02641897 0.3301033 -0.2555193 0.05363305 0.24100503 0.058269817 0.3521894
-0.0021072687 -0.025991876 0.032010775 -0.054385297 0.08973831 0.1001454 0.1541493 -0.17709683
0.20953338 -0.097391576 0.32325262 -0.28688276 0.072757214 0.3869083 -0.06270227 -0.11202928
-0.15458524 0.08791779 -0.022580782 -0.3697498 -0.027404914 -0.21929035 0.06500419 0.0060912655
0.12601505 -0.17471205 0.31005284 -0.015806371 0.124269284 0.114171244 -0.17816228 0.13191552
-0.021258863 -0.28941053 -0.19393136 -0.36224943 0.24769895 0.1450338 0.40203682 -0.43909952
-0.28180575 -0.31895533 0.046444844 0.108858936 0.1166421 -0.034338977 0.097539246 0.270891
-0.12450078 -0.042570714 0.13963178 -0.07239182 -0.0016448671 -0.110837296 -0.056536507 -0.2391189
0.1728779 -0.25957143 0.09250128 -0.006028424 -0.14589489 0.1873468 0.1943314 0.24800405

transformer_enc.layers.0.linear1.bias f4 [2048]
00000000: 6d05 9cbe 44ec 603d f425 d13c 1f0c 95be
00000010: 72ef acbd 77a8 a4be 19b9 0bbe dd73 02bd
00000020: 2c49 8ebc 2f39 be3a abef 87be aa32 97be
00000030: f7da 12bd b88d 57be e774 8a3d d838 463c
00000040: 0ee8 8fbe 6d27 4b3c 2549 53bc 435d b3bd
00000050: 3b23 14be 4b0d 06be 82e0 f2bc 9bed 34be
00000060: 6158 d2bd 79fb 3bbe 2dde 00be 4c19 a7be
00000070: dbbb b5bd f30c 1f3c 2b20 66bc 970b 04be
00000080: 4601 973d 3ac4 afbd 5085 3abe dc85 fcbd
00000090: 04a1 0abe 4bf5 a2be b52f 89be cd1b 1ebc
000000a0: b5ad adbe 5529 f4bd 84f3 debd 0cb3 aebd
000000b0: 71f3 80be fd5f 06be c527 dd3d d052 c1bd
000000c0: cdbd 48be 8e33 09be 2adb 77be 3455 6dbe
000000d0: b695 c2bd ca27 2fbe 55dd 78be 2b70 f4bd
000000e0: c1ee ab3d 93d8 28be 8ccd 72be b39e acbe
000000f0: d88c 0cbd c013 7a3c fcee 8b3d e245 74bc
00000100: b118 ccbe 6611 b239 43ab 8cbe 5adb 9abd
00000110: 5922 c03d 9adc 5c3c aab3 e6bd a586 94be
00000120: 8c66 ffbc 342b 6ebe d1bc 1dbe 73c7 533c
00000130: f9d3 ac3d 9cd8 c2be e650 11bd 4eb6 afbe
00000140: 4dfb 45bb 60de c0be a534 89be b4cf a9be
00000150: cba8 16bc 5cc5 a5bd aa21 40be b99b 933d
00000160: 1083 683d 5922 03be 51cf cebe 1799 a0be
00000170: c9ff 91be 960e 69be 174a d23d 5088 b4be
00000180: a06d 35bd c03c b83d 996c abbe 8261 44be
00000190: 3cc3 d0ba f609 3dbe 4e57 8a3c aee5 093d
000001a0: 810a 44bd 81aa 9abe 95d9 833d e1d4 abbc
000001b0: d7a8 efbd f3e1 75be 4ce8 a7be d7b1 b8bc
000001c0: d7c6 96be 233d b93c c458 1cbe 9487 87be
000001d0: 166c 283e 847d d7bd 12a6 0c3d 38d8 05be
000001e0: 001c 7ebd a3a0 423d 8523 54be f802 443d
000001f0: ed12 86be 1220 babd f7c0 913d b029 48be
00000200: aa7c 3ebe 8a5b a9bd 687e b0be ac2f b2be
00000210: 42b7 8cba 9ac5 9cbe 5cf0 2ebe 5c61 78be
00000220: 39bd 1bbe 8e4a 00be 127f e5be 1399 963c
00000230: e9a9 86be 748b 4abe 6ac6 c1be 3280 10be
00000240: 0a00 a7be e904 37be 88ee c4bd d61a b2bc
00000250: 9bc4 2dbe bf70 68be ffdb 6dbd 7931 76be
00000260: c696 b437 41bf 6dbe e142 84be 452f 86be
00000270: 46a4 b8bd 060b 52bd 411b 4f3c 604e 1fbc
00000280: 87f0 9bbe 67e3 b2be e884 1cbe 2ef9 aabd
00000290: 22ba 6abe 81e7 423d 138e 79be d678 3abd
000002a0: 93ec 6ebe 1178 a5be b1ab 6ebd 088c 7fbe
000002b0: cba6 3f3d ef74 5cbe a2bb a4be 09c4 adbd
000002c0: f317 3cbe a1b4 acbd 0384 a2bd 98e0 49bd
000002d0: ccd0 83bd d81b 18be 9d0d fabd 7676 4abe
000002e0: 98f4 49be 1e87 37be d2f3 7bbc 6b32 34bd
000002f0: 2564 73be cb3e ba3c d099 bbbe 031f f6bd
00000300: 6d7f 1a3e 785e 14be fa16 c1be 7711 0ebd
00000310: d4d7 89be 9ea6 0dbd 5a34 80be 2141 37be
00000320: 5b95 0f3d b775 bfbd d563 16be 34e7 d0bd
00000330: d2cb 82be f3c3 94bd 1993 b2bd b61c 03be
00000340: e7d0 b4be 060c e5be bc59 bcbe ecfa 8fbb
00000350: 27ca d43b 0448 51be 7cb8 a2be 19a8 3bbe
00000360: fe8c bd3c 52ee 1fbe 9b66 663d c12e 44be
00000370: e610 bebe 64c3 9cbc 9aab 91be f6c5 babd
00000380: 5666 51bd 40d3 61be a39e a9bc 77fd a6be
00000390: 1e59 65be 898f d0be 9066 233d 822f 43be
000003a0: bf00 67be d2c3 58bd 8dfc d03c 535c b9be
000003b0: f747 e43b 28f4 bfbe 98fa 95be 9c91 0abe
000003c0: 2d12 d2bd 51c4 a2be 2113 2bbe 77ca e7bd
000003d0: 7e3c cc3c 55a1 83be 3c7d 31be 2cca 9ebe
000003e0: d1ad 5bbe c873 c4be f568 d1bd 878a babe
000003f0: ac5e 20be f998 6ebe 875f 0abd f7bf 9fbe
-0.3047289 0.05491282 0.025530793 -0.2911081 -0.08444108 -0.32159778 -0.13644828 -0.031848777
-0.017368875 0.0014512892 -0.2655004 -0.2953084 -0.035853352 -0.21050155 0.067605786 0.012098514
-0.2810673 0.012399537 -0.012895857 -0.08758023 -0.14466564 -0.13091008 -0.02964807 -0.17668764
-0.10270763 -0.18357648 -0.12584753 -0.32636487 -0.08873721 0.009707677 -0.014045755 -0.12895046
0.0737329 -0.08582349 -0.18214917 -0.12330219 -0.13537985 -0.3182777 -0.2679421 -0.009650183
-0.3392159 -0.11921946 -0.10886291 -0.08530244 -0.2518573 -0.13122554 0.10798601 -0.09439623
-0.19603653 -0.13398573 -0.24204698 -0.23177034 -0.09501211 -0.17105022 -0.24303181 -0.11935457
0.08395148 -0.16488867 -0.23711222 -0.33714828 -0.034314007 0.015263498 0.06832692 -0.0149092395
-0.39862588 0.00033963769 -0.27474412 -0.07561369 0.09381551 0.01348033 -0.11264737 -0.29008976
-0.031176828 -0.23258668 -0.15404059 0.01292597 0.08438868 -0.38055885 -0.03547754 -0.34318775
-0.0030209601 -0.3766966 -0.26797977 -0.33166277 -0.009195517 -0.08094284 -0.18762842 0.07207436
0.056765616 -0.12806071 -0.40392545 -0.31366798 -0.2851546 -0.2275947 0.10268038 -0.35260248
-0.044294 0.08995962 -0.3348129 -0.19177821 -0.0015927325 -0.18460831 0.016887333 0.033666305
-0.04786158 -0.3020821 0.06437985 -0.020975532 -0.117021255 -0.24011974 -0.32794416 -0.022545738
-0.29448578 0.02261216 -0.15268236 -0.26470625 0.16447482 -0.10521987 0.034338064 -0.13070762
-0.06203842 0.047516476 -0.20716675 0.047854394 -0.26186314 -0.09088148 0.07116883 -0.19547153
-0.18602243 -0.08269413 -0.3447144 -0.34801996 -0.0010735767 -0.30619508 -0.17083877 -0.2425589
-0.15208901 -0.1252844 -0.4482351 0.018383538 -0.26301506 -0.1977976 -0.3784669 -0.14111403
-0.32617217 -0.17872967 -0.09615809 -0.021741312 -0.1696953 -0.22699259 -0.058071133 -0.2404231
2.1527881e-05 -0.23217489 -0.25832275 -0.2620794 -0.09015708 -0.051280044 0.012640775 -0.009723276
-0.30456945 -0.3493912 -0.15285075 -0.083483085 -0.22922567 0.04758406 -0.24370603 -0.045525394
-0.23332433 -0.32318166 -0.058269206 -0.24955761 0.046789926 -0.21528982 -0.32174402 -0.08484656
-0.18368511 -0.0843289 -0.079353355 -0.049286455 -0.06436309 -0.14854372 -0.12209628 -0.19771752
-0.19722211 -0.17922637 -0.0153779555 -0.043993395 -0.23768671 0.02273502 -0.36640787 -0.12017634
0.15087672 -0.14489162 -0.37712842 -0.034684625 -0.26922476 -0.034582727 -0.2503994 -0.17895938
0.035054546 -0.09348624 -0.1468652 -0.102003485 -0.25546128 -0.07263937 -0.08719463 -0.12803921
-0.3531563 -0.44735736 -0.36787212 -0.004393926 0.006493825 -0.20437628 -0.31781375 -0.18325843
0.02313852 -0.15618256 0.056250196 -0.1915846 -0.37122267 -0.019136138 -0.28451234 -0.09119789
-0.051122986 -0.22053242 -0.020705527 -0.32615253 -0.22397277 -0.4073451 0.039892733 -0.19061092
-0.22558878 -0.052921124 0.02551105 -0.3620325 0.0069665867 -0.37490964 -0.2929275 -0.13532108
-0.10257373 -0.31790403 -0.16706516 -0.11317914 0.024931189 -0.25709024 -0.1733293 -0.3101362
-0.21453024 -0.38369584 -0.10225097 -0.36433813 -0.15661114 -0.23300542 -0.03378251 -0.31201145
