CLIP_test/model.pth (torch, 42909 bytes, 44 tensors)

img_enc.res_block1.conv1.weight f4 [16, 1, 3, 3]
000000 0e d7 4d 3e 5b 04 cd 3d f6 54 9f 3d ab d2 fc 3a
       0.20101568 0.10010596 0.07779877 0.0019288858
000010 6e 1d 27 be be a1 08 be fb fd 43 be 26 fc 8b 3e
       -0.1631982 -0.1334295 -0.19139855 0.27340811
000020 a6 02 2b 3e 6e 95 12 3e 6e ed 67 be d4 c6 8c be
       0.16700229 0.14314815 -0.22649166 -0.27495444
000030 2b 43 87 bc 68 0f 70 3e ab 0e e6 bb 0e ce 68 3e
       -0.01651152 0.23443377 -0.0070207915 0.22734854
000040 f4 6d 82 be 16 96 1a be e6 f7 7f be bb 51 90 3d
       -0.25474513 -0.15096316 -0.2499691 0.07046839
000050 4b 96 9f 3e 66 6c ca 3d db 94 b3 3d d6 aa 5a 3c
       0.31169352 0.098839566 0.08768626 0.0133463945
000060 73 44 4e be 9b 86 a3 3d 0a 96 92 3e 8b 96 4f 3e
       -0.20143299 0.07984658 0.28630096 0.20272271
000070 e0 7f 42 3e cb 65 34 3d 1b 5c a5 be 2b 46 4f be
       0.18994093 0.04404239 -0.32296833 -0.2024161
000080 eb d7 22 3e 00 f6 61 3d 80 71 ae 3c db 28 ac bd
       0.15902679 0.055166245 0.021294355 -0.0840623
000090 d6 e9 4b 3d f6 f2 16 3d 00 18 62 ba 6b 05 b5 bc
       0.04978355 0.0368528 -0.0008624792 -0.02209731
0000a0 a0 ad 4e be d6 e3 e0 bd e2 63 86 3e 4b a0 0b be
       -0.2018342 -0.10980956 0.2624808 -0.13635366
0000b0 70 ea c7 bd 93 df a7 3e 47 ec 83 3e 9b d9 4f be
       -0.09761512 0.3278776 0.25766203 -0.20297854
0000c0 d0 27 63 be 28 d5 32 be 80 6f 79 bc 9b 49 0d be
       -0.22183156 -0.17464125 -0.015224338 -0.1379761
0000d0 ab a1 10 3c 42 fa a8 3e 00 2e 37 bd eb ed 4a bd
       0.008827607 0.33003432 -0.044721603 -0.049543303
0000e0 db dc a4 3d 70 23 02 3e 26 58 25 3e 4b ff 68 bd
       0.08049937 0.12708831 0.16146907 -0.05688409
0000f0 86 aa 30 3e 5b 28 7e 3e ce de 33 3e 54 14 8e 3e
       0.1725255 0.24820082 0.17565462 0.27749884
000100 ca 7a 9f be df bf a4 3e 46 15 66 be fe c4 7d be
       -0.31148368 0.32177636 -0.22469053 -0.24782178
000110 2a b5 a9 3e 50 92 49 be 8b 6d 03 3d a6 95 90 3d
       0.3314603 -0.1968472 0.03208689 0.07059793
000120 00 06 5e bb c6 43 56 be 9c 06 a2 be 8b d9 1b 3d
       -0.0033878088 -0.20924291 -0.31645668 0.038049262
000130 00 e2 d5 3c 20 b2 64 be 72 dc 8e be 16 47 a7 be
       0.026108742 -0.22333574 -0.2790256 -0.32671422
000140 2b 69 22 bc de 66 a2 3e 5e 55 20 3e f3 88 8a 3e
       -0.009912769 0.31719106 0.15657565 0.2705761
000150 90 bc 84 3e 00 b3 05 bd f8 4e 2c be fb 22 99 bd
       0.25925112 -0.03264141 -0.16826999 -0.07477375
000160 68 8f 43 3e 26 2b c8 3d 9b 7f 32 3e 50 d4 5a 3e
       0.19097674 0.09773855 0.1743149 0.21370053
000170 a6 6b 34 3e b6 d1 ed bd 2b 0b 1c be 2b 2c 10 be
       0.1761919 -0.11612265 -0.15238635 -0.14079349
000180 78 fe 0e 3e 96 b7 c1 3c 96 66 db bd 6a 1c 8c 3e
       0.1396426 0.02364711 -0.10712926 0.27365428
000190 40 5f 4f 3e b0 b3 7c be 74 52 81 be cb d1 0b 3e
       0.20251179 -0.2467792 -0.2525822 0.13654248
0001a0 76 bd cb 3d cb 4c a7 3d 80 71 04 bc 10 b7 0f 3e
       0.09948246 0.08168944 -0.008083701 0.14034677
0001b0 b0 50 b5 3d 16 b0 6f bd b4 3b 90 be 5c 9b 92 3e
       0.088532805 -0.058517538 -0.2817055 0.28634155
0001c0 56 9f 2d bb 96 5e ea bc 5b ab 36 3e db dd 96 3e
       -0.0026492677 -0.028609555 0.17838804 0.29466137
0001d0 2b 8c 2d bd f0 bb 57 3e 78 85 97 be 80 30 ef 3c
       -0.042370003 0.21067786 -0.29594016 0.029197931
0001e0 9e af 1c be 10 dc b8 bd 46 49 94 be 40 28 16 3d
       -0.15301368 -0.090263486 -0.28962153 0.03665948
0001f0 2b b0 89 3c 56 6e a0 3c 07 94 94 3e 4b 5a 8f bd
       0.016807636 0.019583862 0.29019186 -0.06999644
000200 b0 a2 c3 bd 26 8d 88 be 1b 5f a9 3e 23 02 9b be
       -0.095525146 -0.26670188 0.33080372 -0.30275068
000210 cb 48 24 3e 3b 9a 6b be f0 52 7b 3e ef fe 94 be
       0.16043393 -0.23008053 0.24543357 -0.2910075
000220 9e 2e 37 be 56 79 8e bd 9f 69 99 3e 70 a5 6a 3e
       -0.17888877 -0.06956737 0.29963395 0.22914672
000230 6b 32 be bc 5b a4 a4 be 2b 94 51 bc 6e fc 5b 3e
       -0.0232174 -0.32156643 -0.012791674 0.21483013

img_enc.res_block1.conv1.bias f4 [16]
000000 56 5d ea bb 00 b0 71 ba 54 e8 9a be 16 c4 bc bd
       -0.00715224 -0.00092196465 -0.30255377 -0.09217088
000010 83 28 44 3e ae b1 2c be 70 dc c7 bd ab e7 a9 3b
       0.19156079 -0.16864654 -0.09758842 0.0051850877
000020 9b fd 9b bd b6 82 8f 3e 96 70 d7 3d 4b a7 46 be
       -0.07616731 0.28029412 0.10519521 -0.19399755
000030 1b 23 68 be 56 b5 ae 3b 26 c8 14 be 2b 16 0d bc
       -0.22669642 0.0053316755 -0.14529476 -0.008611242

img_enc.res_block1.bn1.weight f4 [16]
000000 00 00 80 3f 00 00 80 3f 00 00 80 3f 00 00 80 3f
       1.0 1.0 1.0 1.0
000010 00 00 80 3f 00 00 80 3f 00 00 80 3f 00 00 80 3f
       1.0 1.0 1.0 1.0
000020 00 00 80 3f 00 00 80 3f 00 00 80 3f 00 00 80 3f
       1.0 1.0 1.0 1.0
000030 00 00 80 3f 00 00 80 3f 00 00 80 3f 00 00 80 3f
       1.0 1.0 1.0 1.0

img_enc.res_block1.bn1.bias f4 [16]
000000 00 00 00 00 00 00 00 00 00 00 00 00 00 00 00 00
       0.0 0.0 0.0 0.0
000010 00 00 00 00 00 00 00 00 00 00 00 00 00 00 00 00
       0.0 0.0 0.0 0.0
000020 00 00 00 00 00 00 00 00 00 00 00 00 00 00 00 00
       0.0 0.0 0.0 0.0
000030 00 00 00 00 00 00 00 00 00 00 00 00 00 00 00 00
       0.0 0.0 0.0 0.0

img_enc.res_block1.bn1.running_mean f4 [16]
000000 b7 0f 1a 3d 2b 09 37 bd bf ad 71 be 81 58 ab bd
       0.037612643 -0.044686478 -0.23601435 -0.0836649
000010 ae 1a 26 3e c3 00 15 be 55 81 3c 3c 8e db 47 3c
       0.16221115 -0.14551072 0.0115054445 0.012198342
000020 1d 78 80 be 9c 42 d5 3e cb c9 08 3e 7b 11 0c be
       -0.2509164 0.4165238 0.13358228 -0.13678543
000030 64 94 2c be a8 80 82 bd be 4e 0c be c6 f4 ef bc
       -0.16853482 -0.063721955 -0.13701913 -0.029291522

img_enc.res_block1.bn1.running_var f4 [16]
000000 bc 2a 18 3c 00 a5 8e 3c 8f 08 04 3d 01 1b bb 3b
       0.009287532 0.017412663 0.032234725 0.005710006
000010 a7 0f 29 3c d9 0c 38 3c 75 92 52 3d 34 ec a3 3c
       0.010318673 0.011233532 0.051409204 0.020010091
000020 3f 89 f1 3d 43 10 93 3d 42 08 2c 3c 5d 6d 6c 3c
       0.11793756 0.07180836 0.010500016 0.014430371
000030 8d 12 01 3d c8 ed d4 3c 41 6c a3 3b c6 83 2f 3c
       0.031511832 0.02599229 0.00498727 0.01071257

img_enc.res_block1.conv2.weight f4 [16, 16, 3, 3]
000000 06 78 f9 3c f6 cd 5b 3d 00 f6 2b bc 26 93 11 3d
       0.03045274 0.053663217 -0.010495663 0.035540722
000010 ca ad 93 3d 98 1a 4d bd 6b 24 83 bb ab 6b 02 bb
       0.07210882 -0.05007419 -0.004002144 -0.00199006
000020 b2 41 88 bd b6 b1 55 bd 00 d6 92 3a 56 4b 29 bc
       -0.066531554 -0.05217143 0.0011202693 -0.010332903
000030 46 c1 ec bc ae d3 a5 bd 00 f8 b9 b9 e0 de b9 bc
       -0.028900754 -0.08097015 -0.00035470724 -0.022689283
000040 ab a2 04 39 5a be 87 bd ea 2a 98 bd 8c 2d 96 bd
       0.000126491 -0.066281036 -0.0743006 -0.07332906
000050 80 7b 85 3d 56 96 bb 3a 88 62 28 3d ab c7 82 3a
       0.065176964 0.0014311771 0.04110959 0.0009977719
000060 10 ea 5e 3d 0b 40 8f 3c 36 cf 98 bd 30 1f 7d bd
       0.05442244 0.017486593 -0.07461397 -0.06179732
000070 b8 d1 62 bd 76 b0 4c bd 96 40 b8 3c b6 6d c2 3c
       -0.055375785 -0.049972974 0.022491734 0.023733955
000080 70 f8 30 3d 0b 71 29 3d 2b fe b9 bb 87 ea 89 bd
       0.04320568 0.04136757 -0.005676051 -0.06734186
000090 16 c3 f8 3c f3 ad 5b bd 9c ad 88 bd ab a7 c9 bc
       0.030366462 -0.053632688 -0.06673738 -0.024616083
0000a0 60 2c f7 bc d6 15 05 bd c8 d4 92 3d c0 a4 8a bc
       -0.030172527 -0.032491527 0.07169491 -0.016924262
0000b0 e8 d4 55 bd 1b 58 21 3d 96 c2 fd 3b 3b bf 84 bd
       -0.052204996 0.039390665 0.0077441437 -0.06481787
0000c0 28 c2 35 bd b0 a8 ac bc dc 89 aa bd 20 1c b7 bc
       -0.044374615 -0.02107653 -0.08327076 -0.022352278
0000d0 6b 01 3c bc d3 61 58 3d 2b 6d a4 bc 3e 7d 4a bd
       -0.011474947 0.052827667 -0.020071587 -0.049435847
0000e0 63 8b 0e 3d 03 40 26 bd cc a4 8e 3d 98 39 38 bd
       0.0348009 -0.04058839 0.06965026 -0.0449768
0000f0 5e 2c 0e bd b6 ea 2e 3d 8b 4c 0c bc 00 2a e3 3a
       -0.03471028 0.042704307 -0.008563171 0.0017331243
000100 10 c9 0a bd 16 0f 31 3d cb 4c 63 bc a6 38 c5 bc
       -0.033883154 0.043227278 -0.013873289 -0.024074864
000110 80 57 8a 3b 43 44 1f bd 86 c7 b6 3c 56 8d ca bb
       0.0042218566 -0.03888346 0.022311937 -0.0061813993
000120 ab 7c 5d bc 20 f2 0c 3d 16 13 d4 3b 5b b2 85 3c
       -0.013518493 0.034410596 0.006472002 0.016320398
000130 1e 0f 01 3d a2 76 8f 3d a6 bc f5 3c 58 79 62 3d
       0.031508557 0.07005049 0.029997181 0.055291504
000140 b6 09 0b bc e0 ad 73 bd a6 44 36 3d bb 04 75 3d
       -0.008486202 -0.059491992 0.044499062 0.059818964
000150 2e 7a 9f bd fe 36 3f bd a0 08 3b bd 0e 1d 2d 3d
       -0.07786976 -0.046683304 -0.045662522 0.042264037
000160 ff 96 99 3d e0 fd f8 3c 2e f0 a4 bd 70 5f 13 bd
       0.07499503 0.030394495 -0.08053623 -0.03597969
000170 eb 2a 4c 3c 63 47 3b 3d 16 e5 84 3b 7e 95 8d 3d
       0.012461404 0.045722377 0.0040556295 0.06913279
000180 56 a0 c9 ba 66 2d af 3c d8 57 80 3d 00 e3 2d bb
       -0.0015382867 0.021383952 0.06266755 -0.0026533008
000190 f0 ab a9 bd 16 8b 0c bd c0 cc 81 bd 5b 26 ef bc
       -0.082847476 -0.03431233 -0.06337881 -0.029193094
0001a0 0b 73 17 bd a2 a0 a8 3d 6e c2 1b 3d 0b f5 7d 3d
       -0.036974948 0.08233763 0.03802722 0.06200127
0001b0 b6 29 30 bd c6 75 33 bd 70 9e 88 bc 16 27 e9 3c
       -0.04300853 -0.04381349 -0.016677111 0.02846102
0001c0 ab 89 86 bb 76 b8 c2 bc cb 8e 24 bc 4b 2c 71 bc
       -0.004105767 -0.023769598 -0.01004381 -0.014720033
0001d0 4b dc 09 bd db 02 fe bc 2b bb 31 3b 03 70 69 bd
       -0.033657353 -0.031007221 0.0027119617 -0.05699159
0001e0 1b 4f 63 3d b0 4f c3 3c 9e 7a 39 bd 2b 99 f4 bc
       0.055495363 0.023841709 -0.045282952 -0.029858192
0001f0 cb bf 94 bc a8 ba 4d bd 96 79 8c bb 4b 85 14 3c
       -0.01815786 -0.050226837 -0.004286955 0.009064983
000200 2a 70 91 bd 3e 32 2f bd b0 b6 a0 bd b0 be 73 bd
       -0.07101472 -0.042772524 -0.07847345 -0.059508026
000210 bb a5 d3 3c 10 14 96 bd 00 2e a3 ba 1a 91 94 3d
       0.025835862 -0.07328045 -0.0012449622 0.072542384
000220 c0 d1 93 bd 43 40 22 bd a6 ed f2 3c 88 a8 99 bd
       -0.07217741 -0.039612066 0.029654335 -0.07502848
000230 76 89 94 3c 8b 80 82 3c 80 35 7a 3b e6 fa aa bc
       0.018131953 0.015930435 0.003817886 -0.02087159
000240 ee 17 14 bd 98 c0 55 3d 46 e0 a8 3c d6 2a 44 3d
       -0.036155634 0.052185625 0.020614754 0.047892414
000250 d6 7d 24 3d e8 6e 11 3d 13 e9 1b 3d 40 73 86 bc
       0.04015907 0.03550616 0.038064074 -0.016412377
000260 26 45 a7 3c c0 c4 f8 bc 40 55 c8 3c ab 23 69 bb
       0.020418715 -0.030367255 0.024454713 -0.0035574238
000270 76 2e a1 3c b0 9d 33 bd 16 51 7d bd ab 4a 3c 3a
       0.019675475 -0.043851554 -0.061844908 0.0007182757
000280 48 1c 80 bd eb e1 55 bd e6 68 a5 3c 90 a5 cc 3c
       -0.06255394 -0.052217405 0.020191621 0.02498129
000290 36 68 0b bd 36 83 6b bd bb 69 1c bd 86 7f b6 3c
       -0.03403493 -0.05749818 -0.03818677 0.022277605
0002a0 ce 4c 36 bd 36 97 1d 3d cb d4 45 bc 8b e1 6d bd
       -0.04450684 0.038474284 -0.01207466 -0.058076423
0002b0 56 11 ea 3b 93 8f 33 bd 8e a8 86 bd 73 60 77 bd
       0.00714318 -0.043838095 -0.06575118 -0.060394716
0002c0 f6 c6 8b bd 38 4b 42 bd 2b f2 97 bd 8b e8 11 3d
       -0.06825058 -0.047435015 -0.07419237 0.03562216
0002d0 18 5d 49 3d d2 09 a8 3d 43 43 1d bd 0b a3 8e 3c
       0.049161047 0.08204998 -0.038394224 0.01741173
0002e0 13 40 6c 3d 56 f5 37 3d 50 d9 8d bd 54 c1 93 3d
       0.057678293 0.044911705 -0.06926215 0.07214609
0002f0 eb 51 1b bc 46 cb bc bc f0 cc 98 3c d6 d8 8b bb
       -0.00947998 -0.023046147 0.01865241 -0.004267792
000300 a8 9c 02 3d 70 9a dc bc 66 29 07 3d 9c 32 92 bd
       0.03188768 -0.02692911 0.032998465 -0.07138559
000310 7e 5e 74 3d a3 5e 00 3d f6 c4 6c bd ab 7a 1d 3c
       0.059660427 0.031340253 -0.057805024 0.009611766
000320 4b 62 e8 bc 56 2d 43 bd f6 65 22 bd 4b 90 fe 3c
       -0.028367182 -0.047650658 -0.03964802 0.031074664
000330 16 7b b7 bc 40 12 72 bd cc 00 8e bd df 30 9a 3d
       -0.02239756 -0.059099436 -0.06933746 0.07528853
000340 2b a2 f1 3b 96 18 dd bb c3 76 0a bd 80 63 2c bc
       0.0073740683 -0.0067473156 -0.033804666 -0.0105217695
000350 80 89 48 bc 00 2c 88 3a 6b aa b4 3b 36 7f 07 3c
       -0.012239814 0.001038909 0.0055134795 0.008270076
000360 e3 c2 1e 3d ea 58 9f bd eb ef e1 3b f0 f7 63 bd
       0.038760077 -0.07780631 0.0068950555 -0.055656374
000370 c3 b3 67 bd 26 6f fc bc a6 69 18 3d ab e7 3a 3d
       -0.05656792 -0.030814718 0.03721013 0.045631092
000380 9b 26 ba bc fe d9 8e bd 2e ba 62 3d 33 d1 1f bd
       -0.022723487 -0.069751725 0.055353336 -0.039017867
000390 60 8e b9 3c 00 05 f9 3a f3 0b 95 bd 26 05 f4 3c
       0.022650898 0.0018998682 -0.0727767 0.029787611
0003a0 56 e2 f3 3c 60 4c 02 3d ee 1d 4a 3d 38 bc 65 3d
       0.029771011 0.031811118 0.04934495 0.056087703
0003b0 56 a2 90 bc 63 a4 96 3d 1b a9 fb 3c 74 39 9e bd
       -0.017655533 0.07355573 0.030720284 -0.07725802
0003c0 56 b5 cf 39 d8 59 4f 3d 50 76 ab bc 7c 10 82 bd
       0.00039617223 0.05062279 -0.02093044 -0.063508004
0003d0 bb 28 81 3c 3b 8b 81 3c 4e 35 6f 3d 92 8d 9d 3d
       0.015766492 0.01581346 0.058400445 0.07693018
0003e0 00 64 aa bc be 10 18 3d fb d3 90 3d 80 e7 f7 3c
       -0.020799637 0.03712534 0.07071682 0.030261755
0003f0 90 db 7b 3d d0 40 8f bc 36 15 38 bc c3 d4 80 bd
       0.061488688 -0.01748696 -0.011235526 -0.06290581

img_enc.res_block1.conv2.bias f4 [16]
000000 13 cd 10 bd 2a 41 95 bd c6 1a 8c bc 46 8f 7a bd
       -0.035351824 -0.0728782 -0.01710261 -0.061171792
000010 e0 0b bb 3c 0b 11 2f 3c 5b df 9a bd eb 80 a1 3c
       0.02283281 0.010685216 -0.07562133 0.019714793
000020 eb 07 f7 bb ae 5a 41 bd ab 82 fb 39 d8 da 4d 3d
       -0.0075387857 -0.04720562 0.00047971806 0.050257534
000030 2b 1f 3f bd ec a9 94 bd 00 d4 73 3a 2b fb 8f bb
       -0.046660583 -0.072589725 0.0009301305 -0.004393955

img_enc.res_block1.bn2.weight f4 [16]
000000 00 00 80 3f 00 00 80 3f 00 00 80 3f 00 00 80 3f
       1.0 1.0 1.0 1.0
000010 00 00 80 3f 00 00 80 3f 00 00 80 3f 00 00 80 3f
       1.0 1.0 1.0 1.0
000020 00 00 80 3f 00 00 80 3f 00 00 80 3f 00 00 80 3f
       1.0 1.0 1.0 1.0
000030 00 00 80 3f 00 00 80 3f 00 00 80 3f 00 00 80 3f
       1.0 1.0 1.0 1.0

img_enc.res_block1.bn2.bias f4 [16]
000000 00 00 00 00 00 00 00 00 00 00 00 00 00 00 00 00
       0.0 0.0 0.0 0.0
000010 00 00 00 00 00 00 00 00 00 00 00 00 00 00 00 00
       0.0 0.0 0.0 0.0
000020 00 00 00 00 00 00 00 00 00 00 00 00 00 00 00 00
       0.0 0.0 0.0 0.0
000030 00 00 00 00 00 00 00 00 00 00 00 00 00 00 00 00
       0.0 0.0 0.0 0.0

img_enc.res_block1.bn2.running_mean f4 [16]
000000 d0 8d b8 be 85 5d 5e bd 28 eb 48 be b9 f9 7c 3e
       -0.36045694 -0.054288406 -0.19620955 0.24704637
000010 61 c6 bc 3d fd ac 35 be e1 80 80 3e bb 16 6d bd
       0.09217525 -0.17741771 0.25098327 -0.057883006
000020 13 23 04 3e 99 59 4a be a1 bf 6b 3e e1 e9 11 be
       0.12904005 -0.19760741 0.2302232 -0.14249374
000030 e8 bc 74 be dc 64 0b be dc 34 83 be 27 23 09 3f
       -0.23900187 -0.13612694 -0.25626266 0.53569263

img_enc.res_block1.bn2.running_var f4 [16]
000000 17 de 50 3e 21 b1 96 3d 44 3d 38 3e f5 e8 bb 3e
       0.2039722 0.073580034 0.17992121 0.3670117
000010 1c a4 93 3d e9 c1 68 3e c5 a0 11 3e cf 54 01 3e
       0.07209036 0.22730221 0.14221485 0.12630008
000020 17 c3 a7 3d 4b 97 a8 3e d6 0a 38 3e e7 a0 1e 3e
       0.08191507 0.32927927 0.17972884 0.15491067
000030 fb 01 69 3e d9 8e e4 3d 2b ff f8 3d 27 4c 2c 3f
       0.22754662 0.111600585 0.121580444 0.673037

img_enc.res_block1.conv3.weight f4 [16, 1, 1, 1]
000000 00 86 8f bb c0 8d 36 3f ba da 3d 3f ac 07 ff 3e
       -0.0043799877 0.71310043 0.74161875 0.4981054
000010 38 87 9e 3e ae 14 32 bf 64 de 4f 3f cc 8c a2 be
       0.3096254 -0.69562805 0.81198716 -0.31748044
000020 d0 be 8d be 2e 2c 30 bf 38 ea ce 3e 98 e4 22 bf
       -0.2768464 -0.6881741 0.4041307 -0.63630056
000030 38 97 23 bf 44 ed 17 3f 78 d7 9d be 58 cf 23 bf
       -0.63902617 0.59346414 -0.30828452 -0.63988256

img_enc.res_block1.conv3.bias f4 [16]
000000 e0 bb 51 be b8 c0 8c 3e 7c 0c 0b bf 00 59 7e bd
       -0.20481825 0.27490783 -0.54315925 -0.062096596
000010 68 60 52 3e f0 0b 81 be 0c 2c 31 3f 30 4a 9b be
       0.20544589 -0.2520442 0.69207835 -0.30330038
000020 c6 ea 56 bf 40 60 a8 3d 44 27 a5 be 90 95 73 be
       -0.83951986 0.08221483 -0.3225652 -0.23787522
000030 40 2a 19 3e 00 c4 4d bc b0 49 c1 be aa 0f 76 3f
       0.14957523 -0.012558937 -0.37751532 0.9611765

img_enc.res_block2.conv1.weight f4 [4, 16, 3, 3]
000000 90 6e 8b bc e6 34 9f 3d 16 ff b6 bc b8 a0 5d bd
       -0.017020494 0.077737615 -0.022338431 -0.05410835
000010 63 53 7c 3d 10 ec 4d bd a3 11 26 bd c4 f2 9c 3d
       0.06160296 -0.050273955 -0.040544163 0.07663491
000020 5b e6 e3 bc 8b ec 18 3c 86 26 08 3d 9e 77 aa bd
       -0.027819803 0.00933374 0.033239864 -0.083235964
000030 2b 1f d4 bc 46 7b a3 3c f6 55 19 bc 2b e9 74 bc
       -0.025893768 0.019956242 -0.009358874 -0.01494817
000040 9b 42 56 bd 1a 42 85 bd c3 d3 00 bd 8c 16 8b bd
       -0.052309614 -0.065067485 -0.03145195 -0.0679141
000050 50 56 17 3d de 09 1e 3d c3 f4 51 3d b6 92 20 bd
       0.03694755 0.03858363 0.051258814 -0.039202414
000060 d0 26 91 3d d8 6b 7c bd ab 97 68 3c 8b c5 51 bd
       0.07087481 -0.061626285 0.014196317 -0.051213782
000070 3a 83 9a bd c0 fb e2 bb 56 ce 2d bc 86 7b 33 bd
       -0.07544561 -0.0069269836 -0.010608276 -0.043818973
000080 70 19 87 3d 56 2e aa bc 0a eb a2 3d eb 11 66 3c
       0.06596649 -0.020774048 0.079549864 0.014042358
000090 90 89 1a 3d e6 e9 e4 3c f3 1e 14 3d cb 3f d6 3c
       0.037728846 0.027943563 0.036162328 0.026153466
0000a0 58 9f 8c 3d 80 25 25 bc 48 09 88 bd 6b 68 5c bc
       0.0686633 -0.0100797415 -0.06642395 -0.01345263
0000b0 78 90 62 bd 0f 04 a3 bd ab a6 d3 3b d0 0b c6 3c
       -0.055313557 -0.079597585 0.0064590774 0.024175555
0000c0 3c 73 87 bd 20 e2 3f bc 40 a4 ec 3c 76 a5 53 3d
       -0.06613776 -0.011711627 0.028886914 0.051671468
0000d0 76 6a 4a 3c 60 b1 da 3c a6 39 63 bd 8b 71 09 bc
       0.012354484 0.026695907 -0.0554749 -0.008388887
0000e0 40 e2 14 bd 83 e7 4e 3d 06 fd 08 bd 7e ba 19 bd
       -0.03634858 0.050513756 -0.033444427 -0.03753137
0000f0 c0 81 60 bd b0 ce b7 3c 6b 24 60 bd b6 8f 64 bc
       -0.05481124 0.022437423 -0.05472223 -0.013950279
000100 66 9b 3a bd 30 06 16 bd 00 46 e5 3b 6b 26 11 3c
       -0.045558356 -0.036626995 0.00699687 0.008859257
000110 6b 32 60 3c e8 18 7c 3d 80 7a 3e bc 07 e8 80 3d
       0.013683896 0.06154719 -0.011625886 0.06294256
000120 6b 6e 0f bd ce 74 4e bd 96 c3 4d bc bb 5e 96 bc
       -0.035017412 -0.050404362 -0.012558838 -0.018355718
000130 a7 3d 89 bd f6 5e 33 3c 5b 02 e9 3c ab ee 3c 3a
       -0.067012124 0.010947933 0.028443506 0.0007207195
000140 f6 7b 69 3c 40 63 4b bd 0f be 98 bd 00 4e 43 ba
       0.014250746 -0.0496552 -0.07458126 -0.00074502826
000150 2b 2f 23 bd 60 75 28 bd 66 27 c0 bc f3 a5 6a 3d
       -0.039839905 -0.041127563 -0.023456287 0.057287168
000160 0e 92 2a bd 2b e1 9a 3b fb 36 26 bd e0 57 0b 3d
       -0.041643195 0.004726549 -0.040579777 0.03401935
000170 c8 65 5e bd 86 e2 b9 bc 66 fc 60 3d de f1 1a 3d
       -0.054296285 -0.022691023 0.054928206 0.03782832
000180 f6 99 8e bc a3 bf 5c bd a6 72 25 3d 3e 8f 07 bd
       -0.017407399 -0.053893697 0.04039254 -0.03309559
000190 66 2f d4 3c 50 24 57 3d f6 a4 a5 bd 14 34 85 bd
       0.025901508 0.052524865 -0.080881044 -0.06504074
0001a0 72 d3 a5 bd 43 1c 55 3d be 13 0e 3d ab 3d 4e 3c
       -0.080969706 0.052028906 0.034686796 0.012587945
0001b0 58 52 81 bd a0 32 7f 3d 23 14 7c bd 96 ea 73 bd
       -0.06314534 0.06230414 -0.06154264 -0.05954989
0001c0 c0 78 4a bd e6 cb aa bc 46 28 4c bd 50 ff 50 3d
       -0.049431562 -0.02084918 -0.049843095 0.051024735
0001d0 fc 31 91 3d 40 65 a6 bd 3b 91 d0 3c d2 4c 86 3d
       0.07089612 -0.08124781 0.025459876 0.06557621
0001e0 5b b4 76 bd d8 62 5c 3d f0 08 9c bc 56 12 5d 3b
       -0.060230594 0.053805202 -0.01904723 0.0033732853
0001f0 e6 87 d4 3c a0 bc 7f bc 86 b0 ee bc 2b 35 03 3d
       0.025943708 -0.015608937 -0.029136907 0.032033127
000200 2b 21 6c 3b 00 6e 90 bd be 02 55 3d 24 0c 9d 3d
       0.0036030512 -0.07052231 0.05200457 0.07668331
000210 b3 09 0f 3d d6 19 1c bb e8 82 23 bd 74 e0 8f 3d
       0.03492136 -0.002381911 -0.039919764 0.07025233
000220 00 aa cc 3a 1b 3f 58 bd 6b dd 82 3d 06 85 a7 bd
       0.0015614629 -0.052794557 0.063898884 -0.08179669
000230 ef 6d 95 3d 56 13 76 ba b6 2d eb bc 56 5a 6f 3d
       0.07296359 -0.00093870366 -0.02870832 0.05843576
000240 fc 91 80 bd 56 58 09 bc 8e 6e 4a bd 00 62 a6 3d
       -0.06277844 -0.008382877 -0.04942184 0.08124161
000250 3b 5f 65 3d 00 32 81 3a 13 75 1e 3d 6b 63 4a 3d
       0.055999022 0.000985682 0.03868587 0.04941122
000260 50 34 52 3d 06 6d 96 bc 40 cc 9f bd aa cd 90 bd
       0.05131942 -0.018362533 -0.078026295 -0.07070477
000270 a7 fc 9b 3d d0 0b 08 bd ab 55 13 3c 8b 14 87 bc
       0.07616549 -0.03321439 0.008992593 -0.016489288
000280 7e fd 09 bd 46 66 33 3d ea b7 90 3d ab 0f 88 ba
       -0.033689015 0.043798707 0.07066329 -0.0010380646
000290 00 ec 56 bc 96 42 46 bd 2b 4c f6 bb e8 f6 12 bd
       -0.01311779 -0.048403345 -0.007516404 -0.03588
0002a0 16 25 fd 3c 5e 63 40 bd b6 90 65 bc 00 40 32 3c
       0.030901473 -0.046969764 -0.014011553 0.010879517
0002b0 26 e6 e0 3c a0 93 80 3d 38 d3 2d 3d 16 3d 65 bc
       0.027453493 0.06278157 0.042437762 -0.013991615
0002c0 f3 fb 15 3d d8 5d 6e bd 1c 6e 8f bd ce 18 56 bd
       0.03661723 -0.058194965 -0.070034236 -0.05226975
0002d0 50 8a 24 3d a8 07 89 bd ff 28 9f 3d 66 ce 65 bd
       0.040170968 -0.066909134 0.07771491 -0.05610504
0002e0 96 2e f2 3c 12 2b a9 bd 16 bd 0e 3d 70 df be bc
       0.02956323 -0.08260168 0.034848295 -0.023299903
0002f0 df 4a a7 bd a6 fe 67 3d c8 54 28 bd f8 49 a3 3d
       -0.081685774 0.056639336 -0.04109648 0.07973093
000300 4e 19 89 bd cb 23 a3 bc 96 5f 6a 3d fb 26 f5 3c
       -0.066942796 -0.019914528 0.057220064 0.029925814
000310 26 ed 9f 3d 03 9e 57 3d 48 64 59 3d 40 e9 aa 3b
       0.07808904 0.052640926 0.05307415 0.005215794
000320 06 a6 0a 3d 06 e5 49 3d b0 e4 59 3d 3b 41 64 bd
       0.03384974 0.04929068 0.05319661 -0.05572627
000330 e7 f8 8a bd fe 52 39 3d c0 2a 0d 3d d0 5e 35 bd
       -0.067857556 0.045245163 0.034464598 -0.044279873
000340 0b 9a a8 3c ab 21 0e 3d de e6 4a 3d ab 95 61 bd
       0.020581266 0.034700077 0.04953658 -0.055074375
000350 0e c6 68 bd 7a 54 9f bd a0 58 85 3c 40 15 de 3b
       -0.056829505 -0.077797845 0.016277611 0.0067774355
000360 96 78 ee bb 6e 07 91 3d 56 92 a4 bd 2b 12 d4 bc
       -0.0072775586 0.07081495 -0.08035724 -0.02588757
000370 00 69 54 bc 13 e7 20 3d db ec b4 bc 4e 91 34 3d
       -0.012964487 0.03928287 -0.022085598 0.044083886
000380 30 94 9d bd 5e 72 41 bd ab d4 94 bd 76 b2 00 bd
       -0.0769428 -0.04722821 -0.07267126 -0.031420194
000390 eb 61 e9 bc d6 f2 82 bb 16 b3 91 3b 56 0a 77 bd
       -0.028489074 -0.0039962335 0.0044463975 -0.06031259
0003a0 36 49 dc 3c 97 c5 a3 bd 2e 81 81 3d eb 62 bc bb
       0.026890378 -0.07996672 0.06323467 -0.0057490966
0003b0 b6 c9 9c 3d 78 bf 62 3d 8b 8a c7 3c 8e d6 20 3d
       0.07655661 0.05535838 0.024358055 0.039267115
0003c0 cb bf 7e 3d f6 4f 88 3c 83 5b 95 3d 36 2e 45 bc
       0.062194627 0.01663969 0.07292845 -0.012034943
0003d0 6e 7f 15 bd 2b ba f2 bc 6b 28 9e bc f7 b7 9f 3d
       -0.03649848 -0.029629787 -0.019306382 0.077987604
0003e0 6a 97 94 3d 2b ff ab 3c d6 39 09 3c c3 19 4e 3d
       0.072554424 0.020995697 0.008375606 0.050317537
0003f0 37 a8 99 3d 46 78 50 bd 88 16 7f bd e3 f1 04 3d
       0.075027876 -0.05089595 -0.062277347 0.032457244

img_enc.res_block2.conv1.bias f4 [4]
000000 e3 e6 94 bd ab 98 91 3d eb b6 98 bc b3 f7 64 3d
       -0.07270601 0.07109197 -0.01864191 0.055900287

img_enc.res_block2.bn1.weight f4 [4]
000000 00 00 80 3f 00 00 80 3f 00 00 80 3f 00 00 80 3f
       1.0 1.0 1.0 1.0

img_enc.res_block2.bn1.bias f4 [4]
000000 00 00 00 00 00 00 00 00 00 00 00 00 00 00 00 00
       0.0 0.0 0.0 0.0

img_enc.res_block2.bn1.running_mean f4 [4]
000000 d3 55 c1 be ae f4 6c 3e 0e 20 09 bd 04 84 4f 3e
       -0.3776079 0.23140213 -0.033477835 0.20265204

img_enc.res_block2.bn1.running_var f4 [4]
000000 cd 22 cc 3d 00 eb 0d 3e eb c1 0b 3e de aa bd 3d
       0.09967575 0.13859177 0.13648193 0.09261106

img_enc.res_block2.conv2.weight f4 [4, 4, 3, 3]
000000 0b 60 9a 3c 9f 5f 28 be 60 32 c3 3c 20 13 f4 3d
       0.018844625 -0.16442727 0.023827732 0.1191771
000010 fb ba de bd 1e 61 df bd 76 4a eb 3d bb d8 18 be
       -0.108755074 -0.109071955 0.11488812 -0.14926426
000020 48 86 18 be f3 32 d8 3d c0 78 f1 bd 43 2f d2 3d
       -0.14894974 0.10556593 -0.11790609 0.10262921
000030 6b 78 56 bd 3b 33 01 be d3 7e a7 3d 20 91 e1 bd
       -0.052360933 -0.12617199 0.08178487 -0.110140085
000040 fe ed 8d 3d e0 1d 51 bd a6 5d ec 3d 66 e8 78 bd
       0.06930159 -0.05105388 0.115412995 -0.060768507
000050 ab fe ed bc 06 c7 50 bd 73 66 ff 3d eb 04 e4 3c
       -0.0290521 -0.050971054 0.124707125 0.027834376
000060 12 84 1b be 7e 11 a2 bd f6 27 cd bd f3 9d 0d 3e
       -0.151871 -0.079134926 -0.100173876 0.13829784
000070 6e bb 0f be 16 6d db bd fb 3f ae 3d 96 e2 fa 3c
       -0.14036343 -0.10714166 0.08508297 0.030625623
000080 80 e5 2c 3c 18 d7 b9 bd ab 55 40 3c ab 02 90 b9
       0.010552764 -0.09074229 0.011739175 -0.00027467808
000090 96 3a eb 3d cb 1a 88 3d 68 84 08 be a0 f1 09 3d
       0.11485784 0.06645735 -0.13331759 0.033677697
0000a0 82 88 22 3e 36 79 03 3e ce 5d a2 bd d6 71 60 bc
       0.15872386 0.12839207 -0.07928048 -0.013699016
0000b0 1a dd 26 3e d6 90 0c be 1c 5d 02 be d6 c1 b1 3c
       0.16295281 -0.13727126 -0.12730831 0.021698873
0000c0 03 05 87 bd 87 b7 14 3e 76 48 8e bd 56 63 1c bc
       -0.06592753 0.14523135 -0.069474146 -0.009545168
0000d0 d6 ac 4c bc 50 e5 a0 3d eb ff 40 bc 56 55 06 3b
       -0.012492379 0.07856238 -0.011779766 0.0020497642
0000e0 b6 b0 bf 3d 86 42 72 3d 4b 05 ee 3c 7c 7c 29 3e
       0.09359877 0.059145473 0.029055258 0.16551393
0000f0 3b 13 9a bd 40 db a1 bd 3b f3 77 3d 4b c9 51 bd
       -0.07523199 -0.07903147 0.060534697 -0.05121736
000100 03 9b ad bd 80 9c 11 3d d6 9e 0d 3e 13 aa f2 3d
       -0.08476832 0.03554964 0.13830122 0.11848845
000110 8b 22 04 3d 0b 49 9c bc 22 45 1f be 16 cf 79 3d
       0.032259505 -0.019077798 -0.15553716 0.06098851
000120 16 d2 22 3e d3 75 81 bd e0 ae e4 3d 6c b5 00 be
       0.15900454 -0.06321301 0.11166167 -0.12569207
000130 be d4 d4 3d 56 c1 ac bb 00 9b e7 3d 2b e3 e5 3d
       0.1039214 -0.005272071 0.11308861 0.112249695
000140 a0 7b c1 bc 80 11 18 3c 50 da e0 bd 8b 0b f2 3c
       -0.02361852 0.009281516 -0.1097914 0.02954652
000150 2b b1 b8 3c 06 09 0d be 1b f7 1e 3e 2b 20 24 3e
       0.022545418 -0.13772973 0.15523951 0.16027896
000160 f8 f8 d3 bd 00 5e 56 bc 16 91 e2 3d 6e 44 d3 3d
       -0.103502214 -0.013083935 0.11062829 0.10315786
000170 10 cd 46 3d 70 97 0e be d0 71 12 be 36 7d a4 3c
       0.048535407 -0.13924956 -0.14301229 0.020079236
000180 80 5b 3c bd 78 ad be 3d 96 0f 5a 3c e8 be 12 be
       -0.0459857 0.0931043 0.01330938 -0.14330637
000190 e3 04 e7 bd fb d0 e5 3d 86 59 2a 3e 76 65 72 bd
       -0.11280229 0.112215005 0.16635713 -0.059178792
0001a0 e0 90 08 3e 5b 83 ac bd 96 09 29 bc 90 b1 bc 3d
       0.13336515 -0.084234916 -0.010317227 0.09213555
0001b0 bf c1 06 be ac a0 0b 3e c0 1f 2c bd 56 f6 17 3d
       -0.13159846 0.1363551 -0.042022467 0.03710016
0001c0 be 4d 96 bd 6e 31 81 3d cb fa 11 bd b6 e0 78 bd
       -0.07339047 0.06308256 -0.035639565 -0.060761176
0001d0 c6 13 72 3d 3b 0f f8 3d e0 8e 9f 3d 96 43 1e be
       0.05910089 0.1211228 0.07790923 -0.1545547
0001e0 56 8a 68 bc 96 b8 b7 bc f3 5e af 3d 33 60 e1 3d
       -0.014193138 -0.022426885 0.08563032 0.11004677
0001f0 8b 25 fb bc b0 43 a5 3d 2b 4d c1 bb 86 86 14 3d
       -0.03065755 0.08069551 -0.0058990917 0.036261104
000200 0b c8 1e be ab d4 8e 3a ee a9 8d 3d 80 93 29 3d
       -0.15505998 0.001089712 0.06917177 0.041400433
000210 38 14 aa bd 96 59 f8 bd 0e 44 dd 3d a8 08 c2 bd
       -0.08304638 -0.12126462 0.10803996 -0.09474307
000220 cb b8 e7 bc eb 28 43 3c 0b 90 b0 bd af d5 12 3e
       -0.028286358 0.011911611 -0.08621224 0.14339326
000230 80 49 6b bd b0 8e 9f 3d 00 5f 15 3e a0 39 00 bd
       -0.057443142 0.07790887 0.14587021 -0.031304955

img_enc.res_block2.conv2.bias f4 [4]
000000 13 f4 ef bd 40 bc 9d bc 7b e7 e2 bd b8 06 93 3d
       -0.11716475 -0.019254804 -0.11079308 0.07179016

img_enc.res_block2.bn2.weight f4 [4]
000000 00 00 80 3f 00 00 80 3f 00 00 80 3f 00 00 80 3f
       1.0 1.0 1.0 1.0

img_enc.res_block2.bn2.bias f4 [4]
000000 00 00 00 00 00 00 00 00 00 00 00 00 00 00 00 00
       0.0 0.0 0.0 0.0

img_enc.res_block2.bn2.running_mean f4 [4]
000000 6b cf b5 be 78 2c 42 3e 79 09 41 3d cc a9 09 3e
       -0.3550981 0.18962276 0.047128174 0.13443679

img_enc.res_block2.bn2.running_var f4 [4]
000000 fb ad b1 3d 63 70 8a 3d ec 62 e4 3d 16 3b 9b 3d
       0.08675762 0.06759717 0.1115168 0.07579629

img_enc.res_block2.conv3.weight f4 [4, 16, 1, 1]
000000 50 8f 44 bd 30 cd f7 bc cc f0 23 3e 18 e4 1c 3e
       -0.047988236 -0.030249208 0.16009825 0.15321386
000010 e0 9b 23 be b6 d2 7e 3e 90 de 09 3e ec 2b bb bd
       -0.1597743 0.24885067 0.13463807 -0.09139237
000020 c6 b6 55 3e 0c 21 ad 3d ac a4 a4 bd 30 a4 d0 3c
       0.20870504 0.08453569 -0.08039221 0.025468916
000030 aa 06 51 3e d0 6a 2e bd 00 c6 3f ba 58 ac 4b be
       0.20412698 -0.042582333 -0.0007315576 -0.19889963
000040 d8 25 72 3d 84 dc 26 be de ea 63 3e 3c f8 3e be
       0.05911812 -0.16295058 0.22257563 -0.18649381
000050 10 60 f4 3d c4 8a 2a be 00 92 5b ba 2a 51 24 3e
       0.11932385 -0.16654497 -0.00083759427 0.16046587
000060 e2 2c 1f 3e 62 a5 00 3e 04 8f 24 be 00 50 d3 b9
       0.15544465 0.12563089 -0.16070181 -0.0004030466
000070 e0 ce 02 be 64 6b 7a 3e 72 d1 63 be 62 36 13 be
       -0.12774229 0.24455029 -0.22247866 -0.14376214
000080 4a 19 18 3e 6a d0 2f 3e 00 99 ba 3a d8 10 24 be
       0.14853397 0.17169347 0.0014236271 -0.1602205
000090 4e 35 4e be f4 6e 1c 3e 10 1d 0c be 40 92 76 3e
       -0.20137522 0.152767 -0.13682961 0.24079227
0000a0 76 f1 17 be 30 f1 ff bd 0c 2d 0a be c0 56 03 3e
       -0.14838204 -0.12497175 -0.13493747 0.12826061
0000b0 d0 ef 97 bc cc 30 4e be bc 7d 10 be 50 1c 28 bd
       -0.018546969 -0.20135802 -0.14110464 -0.041042626
0000c0 30 71 5d 3d ec 35 91 3d 98 75 33 be 30 1d 11 3e
       0.054063022 0.07090363 -0.17525327 0.1417129
0000d0 94 a7 73 be a0 0f 50 3c 80 92 96 bb 08 81 7a 3e
       -0.23794395 0.012699038 -0.004595101 0.24463284
0000e0 e8 46 a5 3d f6 5c 13 3e 7e 9c 1a be 78 bd a7 bd
       0.08070165 0.1439093 -0.1509876 -0.08190435
0000f0 ba 1b 3e 3e f8 7e 18 3d 80 f2 d4 3b 20 b0 88 bd
       0.18565264 0.03723046 0.006498635 -0.06674218

img_enc.res_block2.conv3.bias f4 [4]
000000 18 b8 59 be 80 4e d3 3c 0c fd 27 be d0 20 5e be
       -0.21261632 0.025794268 -0.16405123 -0.21692204

img_enc.res_block3.conv1.weight f4 [1, 4, 3, 3]
000000 cb d4 56 3d 82 32 0b be db 81 21 3d 24 88 00 be
       0.05244903 -0.13593486 0.03943048 -0.12551934
000010 ae 5f 9a bd 63 75 8f 3d 56 19 4f 3a 66 fb a3 bd
       -0.07537781 0.070048116 0.00079001987 -0.08006935
000020 2f 7c 0b 3e aa a7 11 3e 84 07 1c 3e 2b cb 27 be
       0.13621591 0.14224115 0.15237242 -0.16386096
000030 c3 81 b2 3d 46 6b 69 bd 03 bc d8 3d a6 93 5b 3d
       0.08716156 -0.05698707 0.105827354 0.053607605
000040 eb e5 1a 3d 30 34 cd 3d 66 3c 18 bd 13 30 9e 3d
       0.037816923 0.100197196 -0.037166975 0.07724013
000050 f4 8d 0a be 50 2a ab 3d a0 e8 11 3d 2b 20 bd 3c
       -0.13530713 0.0835768 0.03562224 0.023086628
000060 00 cb 43 bb 5b 20 ed bd df b8 25 3e ab ba 0b 3a
       -0.0029875636 -0.11578437 0.16183804 0.0005330245
000070 a0 0a 11 3d 0b c3 fd 3d 50 aa 90 bd 0e 1c 01 be
       0.035410523 0.12390717 -0.070637345 -0.12608358
000080 f0 1b 0c 3e 3e 79 b7 bd 8b 9a ff bd 76 75 eb 3d
       0.13682532 -0.08958672 -0.124806486 0.11497013

img_enc.res_block3.conv2.weight f4 [1, 1, 3, 3]
000000 b3 0b 47 3e 96 5a aa be 68 fb a4 be 56 26 e9 bc
       0.19438057 -0.33272237 -0.32223058 -0.028460663
000010 56 c9 d4 3c cb 32 2b 3e 43 fc 8e be c0 d1 53 bd
       0.02597491 0.16718595 -0.27926835 -0.051713705
000020 40 58 3c be
       -0.1839304

img_enc.res_block3.conv3.weight f4 [1, 4, 1, 1]
000000 ec b9 49 3e ea 4f c1 3e 12 2c ad be e0 8e 4d bd
       0.1969983 0.37756282 -0.33822685 -0.050185084

img_enc.wi.weight f4 [8, 16]
000000 5a 67 61 3e ac 9d b7 bd 04 b4 67 be e0 80 58 bd
       0.22012082 -0.089656204 -0.22627264 -0.05285728
000010 04 a8 df 3d a4 bf f0 bd 80 1e 18 3c 58 4f 42 3d
       0.10920718 -0.117553025 0.0092846155 0.04743895
000020 08 c0 1c be 30 6f 53 3e f0 e4 39 3e 8c bd b1 3d
       -0.15307629 0.20647883 0.18153739 0.08678731
000030 ee d8 1a 3e c6 8d 30 3e 66 e4 37 be 9a f6 28 3e
       0.15121815 0.17241582 -0.17958221 0.16500321
000040 74 22 be bd f0 4d ec 3c e8 93 43 bd ba 41 26 be
       -0.09283915 0.028845757 -0.047748476 -0.1623601
000050 90 75 59 bd 30 23 2c 3d dc 61 5f be 60 64 45 bc
       -0.053090632 0.042025745 -0.21814674 -0.012047857
000060 48 f1 7b bd 90 fc 3b bd d0 8d 2d bd ec 86 c6 bd
       -0.0615094 -0.04589516 -0.04237157 -0.09693703
000070 c0 84 08 3c 3a b9 58 be d2 85 1b 3e 80 2e 38 3c
       0.008332431 -0.21164408 0.15187767 0.011241555
000080 d0 37 74 bd 80 6c f3 3d 78 1e d2 3d 1e 8a 25 3e
       -0.05962354 0.11885929 0.10259718 0.16165969
000090 20 d7 a9 bc 9e b3 12 be fa cf 4b 3e 48 b9 6d bd
       -0.020732462 -0.14326331 0.19903556 -0.058038026
0000a0 4e 62 3d 3e e8 c2 06 bd 9a b0 75 3e e0 70 7c bc
       0.18494532 -0.03290072 0.2399315 -0.015407771
0000b0 80 f9 39 3b 50 ec 51 3e 90 d4 97 3c 86 f3 55 be
       0.0028377473 0.20500302 0.018533975 -0.20893678
0000c0 88 d7 0d 3d 80 f5 27 bc 42 6d 70 be 60 65 40 3e
       0.034629375 -0.010251403 -0.23479179 0.18788671
0000d0 56 4b 3f 3e be b6 0b be 98 35 c6 bd c4 52 2f be
       0.18681082 -0.1364393 -0.09678191 -0.17121416
0000e0 98 19 25 be 20 a9 11 be dc 68 6d be d0 73 bf 3c
       -0.16123044 -0.14224672 -0.23184532 0.023370653
0000f0 d0 6a 0a bd b0 ba 6e be 00 98 65 be 5e d0 6d 3e
       -0.03379327 -0.23313403 -0.22421265 0.23224017
000100 a0 38 64 bc fc b9 d4 3d b0 75 0a be dc 95 05 3e
       -0.013929516 0.10387036 -0.13521457 0.13045448
000110 f8 d5 b8 3d 00 6b 7a 3b 82 14 1f be d0 52 41 be
       0.09025186 0.003821075 -0.15535167 -0.18879247
000120 84 43 d1 bd 78 e8 bc 3d 7c 2a fb 3d 18 51 fb bd
       -0.10217956 0.092240274 0.122639626 -0.12271327
000130 d0 c7 86 3c 4e 91 3a be 0e 8f 74 3e 4a 24 2f 3e
       0.0164527 -0.18219492 0.23882696 0.17103687
000140 6e 47 3a 3e f8 f9 cd bd 74 c3 3f be 68 8f 69 be
       0.18191311 -0.100574434 -0.18726903 -0.22808611
000150 6e 66 26 3e 98 f5 42 3d ec 66 05 3e 1a 2a 37 3e
       0.16250011 0.047597498 0.13027543 0.17887154
000160 a4 0c d4 3d e2 5e 17 3e b0 ac 8d bd 4e f8 2c be
       0.103539735 0.14782289 -0.06917703 -0.16891596
000170 c6 89 55 be d0 e9 36 3d 10 c5 da 3c 30 18 87 bc
       -0.20853338 0.044656575 0.026705295 -0.016491026
000180 6e 93 6e be 08 9e c4 3d 50 80 bf 3c c2 dc 28 be
       -0.23298427 0.096004546 0.023376614 -0.16490462
000190 b2 95 16 3e 40 34 67 3c 80 85 12 be 30 01 a0 3c
       0.14705542 0.014111578 -0.14308739 0.019531816
0001a0 b0 43 ef 3d e0 13 2a be 18 a6 69 3d e0 b7 9a bc
       0.11682832 -0.16609144 0.057043165 -0.018886507
0001b0 68 7d c4 3d da fe 05 3e 40 c3 93 3d 04 bd eb bd
       0.09594232 0.130855 0.07214975 -0.11510661
0001c0 f8 05 ad bd 60 70 a0 bc 7e 45 48 be 18 0a 45 3d
       -0.08448404 -0.019584835 -0.19557759 0.04810533
0001d0 70 e4 df bc c0 c5 fb bd ae 09 06 be 88 5d 12 3e
       -0.027330607 -0.12293577 -0.1308963 0.14293492
0001e0 b0 fd cf bc f2 54 62 3e 50 69 cc 3d 00 34 be 39
       -0.025389522 0.22102717 0.09981024 0.00036278367
0001f0 9c 45 30 3e b0 64 55 3e 9e 25 2c be 44 37 66 be
       0.17214054 0.2083919 -0.16811225 -0.2248202

img_enc.wi.bias f4 [8]
000000 10 6f 8f 3c 98 e0 b3 bd 70 c3 72 3d 10 0f 27 bd
       0.017509013 -0.08783072 0.059268415 -0.04078585
000010 6c 62 fa 3d 8a 32 79 3e 68 d6 68 bd de 01 6a be
       0.12225804 0.24335685 -0.0568451 -0.22852275

img_enc.ln.weight f4 [8]
000000 00 00 80 3f 00 00 80 3f 00 00 80 3f 00 00 80 3f
       1.0 1.0 1.0 1.0
000010 00 00 80 3f 00 00 80 3f 00 00 80 3f 00 00 80 3f
       1.0 1.0 1.0 1.0

img_enc.ln.bias f4 [8]
000000 00 00 00 00 00 00 00 00 00 00 00 00 00 00 00 00
       0.0 0.0 0.0 0.0
000010 00 00 00 00 00 00 00 00 00 00 00 00 00 00 00 00
       0.0 0.0 0.0 0.0

text_enc.emb.weight f4 [10, 16]
000000 aa d7 92 bf 6a d3 05 bf c3 0e 2a 3f a6 6d 92 3f
       -1.1472065 -0.5227572 0.66428775 1.1439712
000010 89 87 d4 bb ac 4e 12 3e 54 17 82 bf 13 a9 9e bd
       -0.0064858836 0.14287823 -1.0163369 -0.07747092
000020 09 b1 e4 bf ce 26 72 3e 7d 77 dd 3d 21 7f 7f 3e
       -1.7866527 0.23647615 0.10813806 0.2495084
000030 b6 37 3f 3f c8 0d f0 bd 5b e0 29 3f 39 55 10 bf
       0.74694383 -0.117213786 0.66357964 -0.5638004
000040 af f6 99 bf 3d e9 53 3e f6 62 e8 be 7b 97 52 bf
       -1.2028407 0.20694442 -0.45388 -0.8226239
000050 6d da 34 bf 26 94 03 3f df f2 dc 3f ba 02 d9 3e
       -0.7064579 0.5139793 1.7261618 0.42384893
000060 ae 7d e9 3e 09 b6 e0 3f ee ad 9c be 8c 0e 2e be
       0.45603698 1.7555553 -0.30601448 -0.16997737
000070 c5 2f 98 bf 0b a5 91 3d 1c 38 27 3e 3d 08 d5 3e
       -1.1889578 0.071115576 0.16329998 0.41607848
000080 19 88 81 bf d5 f0 de bf 2a 4f fb bf 81 0b 70 be
       -1.0119659 -1.7417246 -1.9633534 -0.23441888
000090 26 a2 93 3e f9 dc ca 3f f9 a5 cc bf 7b 65 f1 3e
       0.28834647 1.5848686 -1.5988151 0.47147736
0000a0 e3 f1 80 bf 51 e6 39 bf 67 9e 4e bf b1 83 6b bf
       -1.0073818 -0.7261706 -0.8071045 -0.9199782
0000b0 48 86 91 be 4a da 3b be a6 88 9b 3f 7d f7 60 be
       -0.2842276 -0.1834499 1.2151077 -0.2196941
0000c0 e2 f4 3f bf c0 a0 96 3f 13 ed 21 3f 8a ed cb 3f
       -0.74983037 1.1767807 0.6325237 1.5931866
0000d0 fa 22 59 bf 6b 27 9c bf 18 bc e6 3f 29 d0 f4 bf
       -0.84818995 -1.219953 1.8026152 -1.9126025
0000e0 4a ca 7d bf b0 a4 56 3f 7a a0 ec 3e 19 a7 c3 be
       -0.99136794 0.83845043 0.46216184 -0.38213423
0000f0 eb c8 0e bf bc 50 93 3e a2 29 ab bf b6 3c 98 bd
       -0.55775326 0.28772533 -1.337208 -0.07433455
000100 0c 8f 93 bf 32 25 8d bf c6 73 91 3e 77 0f 1d 40
       -1.152803 -1.1026976 0.2840864 2.454069
000110 e6 a8 24 bf 2b 4b 51 3e 3f e8 7a 3e fc 93 ed 3e
       -0.6432022 0.2043883 0.24502657 0.46401966
000120 9b 0f bf 3e 07 e4 04 3f ad 1e de 3f 30 c3 ce be
       0.37316594 0.5191044 1.7353112 -0.4038329
000130 39 e6 de bf af e0 31 be b7 92 bd be dc ba 88 bf
       -1.7414008 -0.17370866 -0.37025997 -1.0682025
000140 0e 78 48 3f 54 83 19 3f 38 9b b7 bd 39 5d c4 3f
       0.7830819 0.59966016 -0.089651525 1.5340949
000150 af ea d1 3e db b8 05 40 b8 c1 12 bf 0e ac b1 3f
       0.40999362 2.0894077 -0.5732684 1.3880632
000160 2f 93 30 40 79 73 72 bf 79 fa 06 3f 4a bd b4 3e
       2.7589834 -0.9470745 0.5272594 0.35300666
000170 c8 f7 34 bf 6f d7 c3 bf db ba 47 3f f4 95 83 3c
       -0.70690584 -1.530012 0.78019494 0.016062714
000180 70 e1 4e 3f 6b de b0 be 8b 0d 91 3f 25 7e 83 3f
       0.8081274 -0.3454469 1.1332258 1.0272871
000190 63 97 4b bf a9 5d 08 3f 00 1c 03 3f 7f e6 00 c0
       -0.7952787 0.53267914 0.512146 -2.0140684
0001a0 1e 6b 56 be 96 70 9f bf cf 1f b8 3f bc eb ae bf
       -0.209393 -1.2456234 1.4384707 -1.366569
0001b0 dd 60 96 3f 24 33 f4 be 72 38 01 3f ed fa 42 bf
       1.174831 -0.47695267 0.50476754 -0.7616413
0001c0 10 ba 60 3c 50 71 24 bf 25 f5 c3 be 85 06 86 3f
       0.013716236 -0.642354 -0.38272968 1.047074
0001d0 e2 e6 40 be ca e0 64 bf b6 50 39 bf 44 57 9a 3f
       -0.18838075 -0.894055 -0.7238878 1.2057881
0001e0 26 05 07 bd dc 33 62 3f b1 18 94 be 5f 09 a6 be
       -0.032963894 0.8836038 -0.28925088 -0.32429025
0001f0 69 4b e8 be 94 9a 19 40 80 b4 5f bf 73 9f 1c 3f
       -0.45370033 2.4000597 -0.87384796 0.611808
000200 74 f9 b2 bd 04 64 8d be 57 7e 5c 3f be 00 d0 bf
       -0.08738986 -0.27615368 0.8613028 -1.6250226
000210 89 06 96 3f 27 d9 a9 bf 2c 53 8d bf 79 a8 ab 3e
       1.1720744 -1.3269395 -1.1041007 0.33526972
000220 c0 f0 0f c0 b5 f2 c9 3f bb e6 29 bf 05 9e 68 3f
       -2.2490692 1.5777193 -0.6636769 0.9086612
000230 b5 03 81 3e 8b 8a 4c bf 49 bb a9 3f 70 aa b5 3f
       0.2519814 -0.798989 1.326028 1.4192638
000240 b7 9f 57 3f 9b e8 90 bf 43 7b 87 bf b3 90 0d 3f
       0.8422808 -1.1320986 -1.0584491 0.5529892
000250 bc 14 5c bf 13 eb 97 bf cc 01 31 bf 2f 58 11 3f
       -0.8596914 -1.1868614 -0.69143367 0.5677518
000260 3f 24 b8 3f 54 40 f7 be 08 13 0d bf 8f 1b 5b bf
       1.4386061 -0.48291266 -0.55107164 -0.85588926
000270 7a e2 e1 bf 49 c6 b6 3e 42 d6 c4 bf eb 39 31 bf
       -1.764724 0.35698155 -1.5377886 -0.69229

text_enc.dense1.weight f4 [64, 16]
000000 1c 31 5b 3e 28 db b9 3d 24 d8 69 be 7e 87 11 3e
       0.21405452 0.09075004 -0.22836357 0.14211842
000010 f8 75 43 bd 30 6c a2 bc fc 8f f2 3d e2 59 2f be
       -0.047719926 -0.019826978 0.11843869 -0.17124131
000020 70 70 f3 3c 24 a2 96 bd f4 35 1b 3e 86 ff 27 be
       0.0297167 -0.073551446 0.151573 -0.16406068
000030 16 a5 12 3e 00 6a 11 3d aa 2e 2c 3e 1c 7b 41 3e
       0.14320788 0.03550148 0.16814676 0.18894619
000040 9c 56 f5 3d b0 c1 fa 3c 56 62 5b be f6 20 28 3e
       0.1197941 0.030609936 -0.21424231 0.16418824
000050 b4 f4 1b be 5c c6 55 3e 20 f9 c1 bc 38 c9 de bd
       -0.15230066 0.2087645 -0.023678362 -0.10878223
000060 b2 50 0e be 86 87 00 3e 94 43 06 be 00 3b 4c 3b
       -0.1389797 0.12551698 -0.13111717 0.0031163096
000070 50 f1 2f be 44 24 b2 3d 5c a8 8a bd 30 14 32 3e
       -0.17181897 0.08698323 -0.06770393 0.17390513
000080 20 32 22 bc 30 f8 a9 bc 92 31 7a be 0a 59 12 3e
       -0.009899646 -0.020748228 -0.24432972 0.14291778
000090 9c 91 7e 3e de 6f 5d be 7c 50 6d 3e e8 ce 7a 3d
       0.24860233 -0.21624705 0.23175234 0.061232477
0000a0 ce 63 5f be 1c 53 ef bd 36 44 5f be 0e 65 21 3e
       -0.21815416 -0.11685774 -0.21803364 0.15761206
0000b0 18 2e f6 bd cc 87 9d bd 68 4d df bd b0 ad a9 bd
       -0.120205104 -0.07691917 -0.10903436 -0.082850814
0000c0 ec fb ce bd 50 91 aa 3c c0 17 cf bd 24 72 5b 3e
       -0.10106644 0.020821244 -0.10111952 0.2143026
0000d0 78 57 11 bd 20 86 1c bd a0 51 f4 bc 40 d5 8f 3d
       -0.035483807 -0.03821385 -0.029824078 0.07023096
0000e0 5e 0f 4f 3e 66 48 79 be 80 f1 48 3d ae c1 6b be
       0.20220706 -0.24344024 0.049058437 -0.23023102
0000f0 60 04 53 3e 18 6b 2f bd 04 54 94 bd 00 b1 2c 3c
       0.20607138 -0.042826742 -0.07242587 0.010540247
000100 a0 fc 1b be 68 9e 5e 3e 30 9b 18 bd e0 bb 33 3e
       -0.15233088 0.21740115 -0.037257373 0.17552137
000110 30 47 b4 3d 8a 5a 31 be 48 7f 6f bd 24 49 c7 3d
       0.088026404 -0.17319694 -0.058470994 0.09730747
000120 84 a5 a9 bd 3c 16 6f 3e 02 aa 39 3e d0 d0 13 be
       -0.08283523 0.23348325 0.18131259 -0.14435124
000130 5c d3 52 3e e8 ef 8b bd 2c 3c 37 be 80 26 67 3c
       0.2058844 -0.06832868 -0.17894047 0.0141083
000140 b0 3f 07 3e c0 93 bd 3b d4 6b 66 be 2c 3a a7 3d
       0.13207889 0.0057854354 -0.2250207 0.08165392
000150 28 44 4d bd cc d2 c8 3d 90 74 e9 3d d4 33 6f 3e
       -0.050113827 0.09805831 0.11399186 0.23359615
000160 34 59 4e 3e a8 47 1d 3e dc f8 ed 3d 1c 8b f5 3d
       0.20151216 0.15359366 0.11619732 0.11989424
000170 e8 1f f7 3d 10 95 86 3c c0 91 df 3c a0 b1 d2 3c
       0.120666325 0.0164285 0.027291179 0.025719464
000180 28 65 af bd 68 02 41 3d 80 9c 2d bb c6 19 6f be
       -0.08564216 0.047121435 -0.0026490986 -0.23349676
000190 88 6f 73 3d 28 f8 bb 3d 38 86 09 3d c8 86 78 3e
       0.059432536 0.091781914 0.033575267 0.24270165
0001a0 88 c0 9f 3d dc 42 b0 bd 0a 9a 64 3e ce 36 2b be
       0.07800394 -0.086065024 0.22324386 -0.16720125
0001b0 00 8b b7 3a 82 4c 67 3e 00 39 ca ba c0 ea bd 3b
       0.0014003217 0.22587779 -0.0015428364 0.0057958066
0001c0 e8 d2 ad 3d 08 64 33 bd ba 91 3d be 3e a0 0e 3e
       0.08487493 -0.04379657 -0.18512622 0.13928315
0001d0 00 c5 a5 3a 6c 83 8d bd ca ed 1a be d0 46 41 3d
       0.0012647212 -0.06909832 -0.15129772 0.047186673
0001e0 44 8f 84 3d a6 a5 3f be a0 e9 0c bd e0 b6 54 3c
       0.06472638 -0.18715534 -0.03440249 0.012983054
0001f0 54 61 7c be 24 5d 75 be 80 77 44 3d 10 58 39 3e
       -0.24646503 -0.23961312 0.047965527 0.181
000200 10 73 b7 3d 80 38 be bb 30 03 be 3c 48 3b 25 3d
       0.08957493 -0.005805075 0.02319488 0.040339738
000210 6c 82 af bd 84 df c7 3d 8e 7b 6c 3e 50 2a 35 be
       -0.08569798 0.09759429 0.23094007 -0.17691922
000220 f6 f0 0f 3e f4 69 07 3e c6 a7 5c be 38 d7 23 3d
       0.14056763 0.13224012 -0.21548375 0.04000017
000230 48 df 8f bd e8 52 76 be 90 c1 53 be 14 98 d4 bd
       -0.070250094 -0.24055064 -0.20679307 -0.10380569
000240 d6 6d 47 3e 18 41 a7 3d fc 79 44 3e 40 8c fc 3d
       0.19475493 0.081667125 0.19187158 0.12331438
000250 f0 53 eb bc b2 13 61 3e 10 a5 63 3d 98 b3 32 bd
       -0.028726548 0.2198017 0.055577338 -0.043628305
000260 a0 77 03 bd 70 f3 ea bc c0 3e 4a 3d 2a fa 33 3e
       -0.032096505 -0.028680533 0.04937625 0.17575899
000270 96 40 70 be be e4 7f be 84 3d b3 bd 66 4d 73 3e
       -0.23462138 -0.24989602 -0.087519675 0.23759994
000280 10 e2 d7 bc 3e 23 5b 3e ee d7 14 3e c0 2a d0 3d
       -0.026352912 0.21400163 0.14535496 0.10164404
000290 4c ab ba 3d ec a5 c0 3d 90 f2 e5 bd a8 82 de bd
       0.091147035 0.09406647 -0.11227906 -0.108647645
0002a0 3c 88 e6 3d 30 55 70 bd f6 5f 2b 3e 8a 45 0c 3e
       0.112564534 -0.05867499 0.16735825 0.13698402
0002b0 60 4a 36 bc 4c f8 8c bd 08 4a a2 3d 2a e8 37 3e
       -0.011126131 -0.06883296 0.079242766 0.17959657
0002c0 26 79 6d be 36 a3 13 be de 88 07 3e 58 d4 27 3d
       -0.23190746 -0.14417729 0.13235804 0.04097399
0002d0 fc 44 a7 bd d4 8b 59 be bc a0 fc bd 28 7e 19 3d
       -0.081674546 -0.21244746 -0.12335345 0.037473828
0002e0 00 cf f7 3b 88 de 46 3d 76 81 23 be 40 5d 12 3d
       0.007562518 0.048552066 -0.15967354 0.03573346
0002f0 80 1e 1d bb aa cc 1b 3e 40 92 f6 bc 00 a5 27 3e
       -0.0023974478 0.15214792 -0.030099034 0.16371536
000300 60 81 d9 bc 34 66 76 3e ec 1a 08 be 00 ce 49 3c
       -0.026550949 0.24062425 -0.1329152 0.012317181
000310 50 2c 64 3e 00 8b bd 3b 78 07 67 be e2 70 13 be
       0.22282529 0.0057843924 -0.22561443 -0.1439853
000320 b4 7d f0 bd 26 f7 52 be d0 63 33 bd d0 e4 16 be
       -0.11742726 -0.20602092 -0.04379636 -0.14735723
000330 30 25 72 be 40 e7 47 3e ae 03 6a be f0 24 da bc
       -0.23646998 0.19521809 -0.22852966 -0.026628941
000340 7e 22 5b be 48 df 57 bd c4 e9 56 be ec f7 ba 3d
       -0.21399876 -0.052703172 -0.20987612 0.091293186
000350 fc 38 9a bd 70 bb b8 bd 20 b2 79 3e b4 40 68 be
       -0.075304 -0.09020126 0.24384356 -0.22680932
000360 d8 22 59 3e 40 2f 0d 3e 0a b5 60 be d2 bd 7e be
       0.21204698 0.13787556 -0.21944061 -0.24877098
000370 2c b8 89 3d d4 7c b1 bd 98 e7 73 3d d0 b7 c9 bd
       0.06724581 -0.08666387 0.059547037 -0.098495126
000380 70 a9 04 bd c8 1b be 3d a8 37 f9 3d 68 8a 69 3e
       -0.03238815 0.092826426 0.12168819 0.22806704
000390 40 5d 27 be c2 86 42 be fc e4 b1 3d c4 1d 9e bd
       -0.16344166 -0.18996719 0.086862534 -0.07720521
0003a0 ee 3f 7f be e2 5a 55 be 00 de c0 bc 20 04 11 3e
       -0.24926731 -0.2083545 -0.023543358 0.1416173
0003b0 ec f0 5b be 38 c9 1f bd a0 42 06 bd 58 b5 e0 bd
       -0.21478623 -0.039010257 -0.032778382 -0.109720886
0003c0 30 b0 f1 bd 54 71 2f be e8 fe 08 3d 08 86 f0 bd
       -0.11801183 -0.17133075 0.033446223 -0.117443144
0003d0 84 d1 71 3e b4 cf 4c 3e 70 6c 26 bd 38 d9 60 be
       0.2361508 0.20001107 -0.040630758 -0.21957862
0003e0 00 91 0d bc fc 7d 37 3e b0 04 ef 3c 26 02 2d 3e
       -0.008640528 0.17919153 0.02917704 0.16895351
0003f0 46 6d 3d 3e 80 57 51 bb 62 b5 4b be 7c bc c8 bd
       0.18498716 -0.0031943023 -0.19893411 -0.098015755

text_enc.dense1.bias f4 [64]
000000 80 26 da 3d 16 8e 5f 3e f2 42 11 be c0 60 df 3c
       0.106518745 0.21831545 -0.14185694 0.027267814
000010 22 cc 15 3e ee 66 15 3e ec 48 4e be 60 9c 87 3d
       0.14628652 0.14590046 -0.20145005 0.06621623
000020 90 a8 c5 bc 90 fc e6 3c a8 56 41 3e 10 d3 7e 3d
       -0.024128228 0.028196603 0.18880713 0.062213004
000030 48 76 16 3d 24 39 85 bd 88 3a b4 3d f2 6a 2e be
       0.036733896 -0.06505039 0.088002264 -0.17032984
000040 e0 2e 72 be 98 49 09 3d a8 c9 89 3d 0a 58 46 be
       -0.23650694 0.03351745 0.06727916 -0.19369522
000050 86 dd 08 be 6c f3 37 3e a0 86 fc bd a8 50 77 be
       -0.13365754 0.17963952 -0.12330365 -0.24151862
000060 c2 59 25 3e d0 9a d1 3c f8 e4 44 3e 28 5e 85 bd
       0.16147521 0.025586516 0.1922797 -0.065120995
000070 0c 6f e9 3d 04 65 07 3e 06 52 26 be 38 80 17 3e
       0.11398134 0.13222128 -0.16242227 0.14795005
000080 b8 2c 56 be 04 11 22 3e e8 9f a6 3d c0 eb a0 3d
       -0.20915496 0.15826803 0.081359684 0.07857466
000090 cc af f6 3d f8 85 0f bd ee 94 3a 3e 40 35 88 3c
       0.12045249 -0.035039872 0.18220875 0.016626954
0000a0 f0 fb ff bd 36 a2 26 3e 10 b6 8f bd 60 a6 fa 3d
       -0.12499225 0.16272816 -0.070171475 0.12238765
0000b0 50 b1 d5 3d 40 a9 71 bc 8c 97 61 be e4 24 fc bd
       0.1043421 -0.014749825 -0.22030467 -0.12311724
0000c0 2e 45 0e be 4e cd 76 3e d0 74 15 bd e0 db 68 be
       -0.13893577 0.24101755 -0.036488354 -0.22740126
0000d0 e8 db 34 bd 00 32 32 3a dc b5 ca bd c0 c1 84 bd
       -0.04415503 0.0006797612 -0.09897968 -0.064822674
0000e0 42 4d 6e 3e c4 f7 d8 bd ec d0 f6 3d fe a6 31 3e
       0.23271659 -0.105941325 0.120515674 0.17348859
0000f0 d0 34 7a be a0 67 ad bc 40 0d 99 3c 70 9e a8 3d
       -0.24434209 -0.021167576 0.018683076 0.082333446
